{
  "nodes": [
    {
      "op": "null", 
      "name": "data", 
      "inputs": []
    }, 
    {
      "op": "null", 
      "name": "bn_data_gamma", 
      "attr": {
        "eps": "2e-05", 
        "fix_gamma": "True", 
        "momentum": "0.99", 
        "use_global_stats": "True"
      }, 
      "inputs": []
    }, 
    {
      "op": "null", 
      "name": "bn_data_beta", 
      "attr": {
        "eps": "2e-05", 
        "fix_gamma": "True", 
        "momentum": "0.99", 
        "use_global_stats": "True"
      }, 
      "inputs": []
    }, 
    {
      "op": "null", 
      "name": "bn_data_moving_mean", 
      "attr": {
        "__init__": "[\"zero\", {}]", 
        "eps": "2e-05", 
        "fix_gamma": "True", 
        "momentum": "0.99", 
        "use_global_stats": "True"
      }, 
      "inputs": []
    }, 
    {
      "op": "null", 
      "name": "bn_data_moving_var", 
      "attr": {
        "__init__": "[\"one\", {}]", 
        "eps": "2e-05", 
        "fix_gamma": "True", 
        "momentum": "0.99", 
        "use_global_stats": "True"
      }, 
      "inputs": []
    }, 
    {
      "op": "BatchNorm", 
      "name": "bn_data", 
      "attr": {
        "eps": "2e-05", 
        "fix_gamma": "True", 
        "momentum": "0.99", 
        "use_global_stats": "True"
      }, 
      "inputs": [[0, 0, 0], [1, 0, 0], [2, 0, 0], [3, 0, 1], [4, 0, 1]]
    }, 
    {
      "op": "null", 
      "name": "conv0_weight", 
      "attr": {
        "kernel": "(7, 7)", 
        "no_bias": "True", 
        "num_filter": "64", 
        "pad": "(3, 3)", 
        "stride": "(2, 2)", 
        "workspace": "512"
      }, 
      "inputs": []
    }, 
    {
      "op": "Convolution", 
      "name": "conv0", 
      "attr": {
        "kernel": "(7, 7)", 
        "no_bias": "True", 
        "num_filter": "64", 
        "pad": "(3, 3)", 
        "stride": "(2, 2)", 
        "workspace": "512"
      }, 
      "inputs": [[5, 0, 0], [6, 0, 0]]
    }, 
    {
      "op": "null", 
      "name": "bn0_gamma", 
      "attr": {
        "eps": "2e-05", 
        "fix_gamma": "False", 
        "momentum": "0.99", 
        "use_global_stats": "True"
      }, 
      "inputs": []
    }, 
    {
      "op": "null", 
      "name": "bn0_beta", 
      "attr": {
        "eps": "2e-05", 
        "fix_gamma": "False", 
        "momentum": "0.99", 
        "use_global_stats": "True"
      }, 
      "inputs": []
    }, 
    {
      "op": "null", 
      "name": "bn0_moving_mean", 
      "attr": {
        "__init__": "[\"zero\", {}]", 
        "eps": "2e-05", 
        "fix_gamma": "False", 
        "momentum": "0.99", 
        "use_global_stats": "True"
      }, 
      "inputs": []
    }, 
    {
      "op": "null", 
      "name": "bn0_moving_var", 
      "attr": {
        "__init__": "[\"one\", {}]", 
        "eps": "2e-05", 
        "fix_gamma": "False", 
        "momentum": "0.99", 
        "use_global_stats": "True"
      }, 
      "inputs": []
    }, 
    {
      "op": "BatchNorm", 
      "name": "bn0", 
      "attr": {
        "eps": "2e-05", 
        "fix_gamma": "False", 
        "momentum": "0.99", 
        "use_global_stats": "True"
      }, 
      "inputs": [[7, 0, 0], [8, 0, 0], [9, 0, 0], [10, 0, 1], [11, 0, 1]]
    }, 
    {
      "op": "Activation", 
      "name": "relu0", 
      "attr": {"act_type": "relu"}, 
      "inputs": [[12, 0, 0]]
    }, 
    {
      "op": "Pooling", 
      "name": "pooling0", 
      "attr": {
        "kernel": "(3, 3)", 
        "pad": "(1, 1)", 
        "pool_type": "max", 
        "stride": "(2, 2)"
      }, 
      "inputs": [[13, 0, 0]]
    }, 
    {
      "op": "null", 
      "name": "stage1_unit1_bn1_gamma", 
      "attr": {
        "eps": "2e-05", 
        "fix_gamma": "False", 
        "momentum": "0.9", 
        "use_global_stats": "True"
      }, 
      "inputs": []
    }, 
    {
      "op": "null", 
      "name": "stage1_unit1_bn1_beta", 
      "attr": {
        "eps": "2e-05", 
        "fix_gamma": "False", 
        "momentum": "0.9", 
        "use_global_stats": "True"
      }, 
      "inputs": []
    }, 
    {
      "op": "null", 
      "name": "stage1_unit1_bn1_moving_mean", 
      "attr": {
        "__init__": "[\"zero\", {}]", 
        "eps": "2e-05", 
        "fix_gamma": "False", 
        "momentum": "0.9", 
        "use_global_stats": "True"
      }, 
      "inputs": []
    }, 
    {
      "op": "null", 
      "name": "stage1_unit1_bn1_moving_var", 
      "attr": {
        "__init__": "[\"one\", {}]", 
        "eps": "2e-05", 
        "fix_gamma": "False", 
        "momentum": "0.9", 
        "use_global_stats": "True"
      }, 
      "inputs": []
    }, 
    {
      "op": "BatchNorm", 
      "name": "stage1_unit1_bn1", 
      "attr": {
        "eps": "2e-05", 
        "fix_gamma": "False", 
        "momentum": "0.9", 
        "use_global_stats": "True"
      }, 
      "inputs": [[14, 0, 0], [15, 0, 0], [16, 0, 0], [17, 0, 1], [18, 0, 1]]
    }, 
    {
      "op": "Activation", 
      "name": "stage1_unit1_relu1", 
      "attr": {"act_type": "relu"}, 
      "inputs": [[19, 0, 0]]
    }, 
    {
      "op": "null", 
      "name": "stage1_unit1_conv1_weight", 
      "attr": {
        "kernel": "(1, 1)", 
        "no_bias": "True", 
        "num_filter": "64", 
        "pad": "(0, 0)", 
        "stride": "(1, 1)", 
        "workspace": "512"
      }, 
      "inputs": []
    }, 
    {
      "op": "Convolution", 
      "name": "stage1_unit1_conv1", 
      "attr": {
        "kernel": "(1, 1)", 
        "no_bias": "True", 
        "num_filter": "64", 
        "pad": "(0, 0)", 
        "stride": "(1, 1)", 
        "workspace": "512"
      }, 
      "inputs": [[20, 0, 0], [21, 0, 0]]
    }, 
    {
      "op": "null", 
      "name": "stage1_unit1_bn2_gamma", 
      "attr": {
        "eps": "2e-05", 
        "fix_gamma": "False", 
        "momentum": "0.9", 
        "use_global_stats": "True"
      }, 
      "inputs": []
    }, 
    {
      "op": "null", 
      "name": "stage1_unit1_bn2_beta", 
      "attr": {
        "eps": "2e-05", 
        "fix_gamma": "False", 
        "momentum": "0.9", 
        "use_global_stats": "True"
      }, 
      "inputs": []
    }, 
    {
      "op": "null", 
      "name": "stage1_unit1_bn2_moving_mean", 
      "attr": {
        "__init__": "[\"zero\", {}]", 
        "eps": "2e-05", 
        "fix_gamma": "False", 
        "momentum": "0.9", 
        "use_global_stats": "True"
      }, 
      "inputs": []
    }, 
    {
      "op": "null", 
      "name": "stage1_unit1_bn2_moving_var", 
      "attr": {
        "__init__": "[\"one\", {}]", 
        "eps": "2e-05", 
        "fix_gamma": "False", 
        "momentum": "0.9", 
        "use_global_stats": "True"
      }, 
      "inputs": []
    }, 
    {
      "op": "BatchNorm", 
      "name": "stage1_unit1_bn2", 
      "attr": {
        "eps": "2e-05", 
        "fix_gamma": "False", 
        "momentum": "0.9", 
        "use_global_stats": "True"
      }, 
      "inputs": [[22, 0, 0], [23, 0, 0], [24, 0, 0], [25, 0, 1], [26, 0, 1]]
    }, 
    {
      "op": "Activation", 
      "name": "stage1_unit1_relu2", 
      "attr": {"act_type": "relu"}, 
      "inputs": [[27, 0, 0]]
    }, 
    {
      "op": "null", 
      "name": "stage1_unit1_conv2_weight", 
      "attr": {
        "kernel": "(3, 3)", 
        "no_bias": "True", 
        "num_filter": "64", 
        "pad": "(1, 1)", 
        "stride": "(1, 1)", 
        "workspace": "512"
      }, 
      "inputs": []
    }, 
    {
      "op": "Convolution", 
      "name": "stage1_unit1_conv2", 
      "attr": {
        "kernel": "(3, 3)", 
        "no_bias": "True", 
        "num_filter": "64", 
        "pad": "(1, 1)", 
        "stride": "(1, 1)", 
        "workspace": "512"
      }, 
      "inputs": [[28, 0, 0], [29, 0, 0]]
    }, 
    {
      "op": "null", 
      "name": "stage1_unit1_bn3_gamma", 
      "attr": {
        "eps": "2e-05", 
        "fix_gamma": "False", 
        "momentum": "0.9", 
        "use_global_stats": "True"
      }, 
      "inputs": []
    }, 
    {
      "op": "null", 
      "name": "stage1_unit1_bn3_beta", 
      "attr": {
        "eps": "2e-05", 
        "fix_gamma": "False", 
        "momentum": "0.9", 
        "use_global_stats": "True"
      }, 
      "inputs": []
    }, 
    {
      "op": "null", 
      "name": "stage1_unit1_bn3_moving_mean", 
      "attr": {
        "__init__": "[\"zero\", {}]", 
        "eps": "2e-05", 
        "fix_gamma": "False", 
        "momentum": "0.9", 
        "use_global_stats": "True"
      }, 
      "inputs": []
    }, 
    {
      "op": "null", 
      "name": "stage1_unit1_bn3_moving_var", 
      "attr": {
        "__init__": "[\"one\", {}]", 
        "eps": "2e-05", 
        "fix_gamma": "False", 
        "momentum": "0.9", 
        "use_global_stats": "True"
      }, 
      "inputs": []
    }, 
    {
      "op": "BatchNorm", 
      "name": "stage1_unit1_bn3", 
      "attr": {
        "eps": "2e-05", 
        "fix_gamma": "False", 
        "momentum": "0.9", 
        "use_global_stats": "True"
      }, 
      "inputs": [[30, 0, 0], [31, 0, 0], [32, 0, 0], [33, 0, 1], [34, 0, 1]]
    }, 
    {
      "op": "Activation", 
      "name": "stage1_unit1_relu3", 
      "attr": {"act_type": "relu"}, 
      "inputs": [[35, 0, 0]]
    }, 
    {
      "op": "null", 
      "name": "stage1_unit1_conv3_weight", 
      "attr": {
        "kernel": "(1, 1)", 
        "no_bias": "True", 
        "num_filter": "256", 
        "pad": "(0, 0)", 
        "stride": "(1, 1)", 
        "workspace": "512"
      }, 
      "inputs": []
    }, 
    {
      "op": "Convolution", 
      "name": "stage1_unit1_conv3", 
      "attr": {
        "kernel": "(1, 1)", 
        "no_bias": "True", 
        "num_filter": "256", 
        "pad": "(0, 0)", 
        "stride": "(1, 1)", 
        "workspace": "512"
      }, 
      "inputs": [[36, 0, 0], [37, 0, 0]]
    }, 
    {
      "op": "null", 
      "name": "stage1_unit1_sc_weight", 
      "attr": {
        "kernel": "(1, 1)", 
        "no_bias": "True", 
        "num_filter": "256", 
        "stride": "(1, 1)", 
        "workspace": "512"
      }, 
      "inputs": []
    }, 
    {
      "op": "Convolution", 
      "name": "stage1_unit1_sc", 
      "attr": {
        "kernel": "(1, 1)", 
        "no_bias": "True", 
        "num_filter": "256", 
        "stride": "(1, 1)", 
        "workspace": "512"
      }, 
      "inputs": [[20, 0, 0], [39, 0, 0]]
    }, 
    {
      "op": "elemwise_add", 
      "name": "_plus0", 
      "inputs": [[38, 0, 0], [40, 0, 0]]
    }, 
    {
      "op": "null", 
      "name": "stage1_unit2_bn1_gamma", 
      "attr": {
        "eps": "2e-05", 
        "fix_gamma": "False", 
        "momentum": "0.9", 
        "use_global_stats": "True"
      }, 
      "inputs": []
    }, 
    {
      "op": "null", 
      "name": "stage1_unit2_bn1_beta", 
      "attr": {
        "eps": "2e-05", 
        "fix_gamma": "False", 
        "momentum": "0.9", 
        "use_global_stats": "True"
      }, 
      "inputs": []
    }, 
    {
      "op": "null", 
      "name": "stage1_unit2_bn1_moving_mean", 
      "attr": {
        "__init__": "[\"zero\", {}]", 
        "eps": "2e-05", 
        "fix_gamma": "False", 
        "momentum": "0.9", 
        "use_global_stats": "True"
      }, 
      "inputs": []
    }, 
    {
      "op": "null", 
      "name": "stage1_unit2_bn1_moving_var", 
      "attr": {
        "__init__": "[\"one\", {}]", 
        "eps": "2e-05", 
        "fix_gamma": "False", 
        "momentum": "0.9", 
        "use_global_stats": "True"
      }, 
      "inputs": []
    }, 
    {
      "op": "BatchNorm", 
      "name": "stage1_unit2_bn1", 
      "attr": {
        "eps": "2e-05", 
        "fix_gamma": "False", 
        "momentum": "0.9", 
        "use_global_stats": "True"
      }, 
      "inputs": [[41, 0, 0], [42, 0, 0], [43, 0, 0], [44, 0, 1], [45, 0, 1]]
    }, 
    {
      "op": "Activation", 
      "name": "stage1_unit2_relu1", 
      "attr": {"act_type": "relu"}, 
      "inputs": [[46, 0, 0]]
    }, 
    {
      "op": "null", 
      "name": "stage1_unit2_conv1_weight", 
      "attr": {
        "kernel": "(1, 1)", 
        "no_bias": "True", 
        "num_filter": "64", 
        "pad": "(0, 0)", 
        "stride": "(1, 1)", 
        "workspace": "512"
      }, 
      "inputs": []
    }, 
    {
      "op": "Convolution", 
      "name": "stage1_unit2_conv1", 
      "attr": {
        "kernel": "(1, 1)", 
        "no_bias": "True", 
        "num_filter": "64", 
        "pad": "(0, 0)", 
        "stride": "(1, 1)", 
        "workspace": "512"
      }, 
      "inputs": [[47, 0, 0], [48, 0, 0]]
    }, 
    {
      "op": "null", 
      "name": "stage1_unit2_bn2_gamma", 
      "attr": {
        "eps": "2e-05", 
        "fix_gamma": "False", 
        "momentum": "0.9", 
        "use_global_stats": "True"
      }, 
      "inputs": []
    }, 
    {
      "op": "null", 
      "name": "stage1_unit2_bn2_beta", 
      "attr": {
        "eps": "2e-05", 
        "fix_gamma": "False", 
        "momentum": "0.9", 
        "use_global_stats": "True"
      }, 
      "inputs": []
    }, 
    {
      "op": "null", 
      "name": "stage1_unit2_bn2_moving_mean", 
      "attr": {
        "__init__": "[\"zero\", {}]", 
        "eps": "2e-05", 
        "fix_gamma": "False", 
        "momentum": "0.9", 
        "use_global_stats": "True"
      }, 
      "inputs": []
    }, 
    {
      "op": "null", 
      "name": "stage1_unit2_bn2_moving_var", 
      "attr": {
        "__init__": "[\"one\", {}]", 
        "eps": "2e-05", 
        "fix_gamma": "False", 
        "momentum": "0.9", 
        "use_global_stats": "True"
      }, 
      "inputs": []
    }, 
    {
      "op": "BatchNorm", 
      "name": "stage1_unit2_bn2", 
      "attr": {
        "eps": "2e-05", 
        "fix_gamma": "False", 
        "momentum": "0.9", 
        "use_global_stats": "True"
      }, 
      "inputs": [[49, 0, 0], [50, 0, 0], [51, 0, 0], [52, 0, 1], [53, 0, 1]]
    }, 
    {
      "op": "Activation", 
      "name": "stage1_unit2_relu2", 
      "attr": {"act_type": "relu"}, 
      "inputs": [[54, 0, 0]]
    }, 
    {
      "op": "null", 
      "name": "stage1_unit2_conv2_weight", 
      "attr": {
        "kernel": "(3, 3)", 
        "no_bias": "True", 
        "num_filter": "64", 
        "pad": "(1, 1)", 
        "stride": "(1, 1)", 
        "workspace": "512"
      }, 
      "inputs": []
    }, 
    {
      "op": "Convolution", 
      "name": "stage1_unit2_conv2", 
      "attr": {
        "kernel": "(3, 3)", 
        "no_bias": "True", 
        "num_filter": "64", 
        "pad": "(1, 1)", 
        "stride": "(1, 1)", 
        "workspace": "512"
      }, 
      "inputs": [[55, 0, 0], [56, 0, 0]]
    }, 
    {
      "op": "null", 
      "name": "stage1_unit2_bn3_gamma", 
      "attr": {
        "eps": "2e-05", 
        "fix_gamma": "False", 
        "momentum": "0.9", 
        "use_global_stats": "True"
      }, 
      "inputs": []
    }, 
    {
      "op": "null", 
      "name": "stage1_unit2_bn3_beta", 
      "attr": {
        "eps": "2e-05", 
        "fix_gamma": "False", 
        "momentum": "0.9", 
        "use_global_stats": "True"
      }, 
      "inputs": []
    }, 
    {
      "op": "null", 
      "name": "stage1_unit2_bn3_moving_mean", 
      "attr": {
        "__init__": "[\"zero\", {}]", 
        "eps": "2e-05", 
        "fix_gamma": "False", 
        "momentum": "0.9", 
        "use_global_stats": "True"
      }, 
      "inputs": []
    }, 
    {
      "op": "null", 
      "name": "stage1_unit2_bn3_moving_var", 
      "attr": {
        "__init__": "[\"one\", {}]", 
        "eps": "2e-05", 
        "fix_gamma": "False", 
        "momentum": "0.9", 
        "use_global_stats": "True"
      }, 
      "inputs": []
    }, 
    {
      "op": "BatchNorm", 
      "name": "stage1_unit2_bn3", 
      "attr": {
        "eps": "2e-05", 
        "fix_gamma": "False", 
        "momentum": "0.9", 
        "use_global_stats": "True"
      }, 
      "inputs": [[57, 0, 0], [58, 0, 0], [59, 0, 0], [60, 0, 1], [61, 0, 1]]
    }, 
    {
      "op": "Activation", 
      "name": "stage1_unit2_relu3", 
      "attr": {"act_type": "relu"}, 
      "inputs": [[62, 0, 0]]
    }, 
    {
      "op": "null", 
      "name": "stage1_unit2_conv3_weight", 
      "attr": {
        "kernel": "(1, 1)", 
        "no_bias": "True", 
        "num_filter": "256", 
        "pad": "(0, 0)", 
        "stride": "(1, 1)", 
        "workspace": "512"
      }, 
      "inputs": []
    }, 
    {
      "op": "Convolution", 
      "name": "stage1_unit2_conv3", 
      "attr": {
        "kernel": "(1, 1)", 
        "no_bias": "True", 
        "num_filter": "256", 
        "pad": "(0, 0)", 
        "stride": "(1, 1)", 
        "workspace": "512"
      }, 
      "inputs": [[63, 0, 0], [64, 0, 0]]
    }, 
    {
      "op": "elemwise_add", 
      "name": "_plus1", 
      "inputs": [[65, 0, 0], [41, 0, 0]]
    }, 
    {
      "op": "null", 
      "name": "stage1_unit3_bn1_gamma", 
      "attr": {
        "eps": "2e-05", 
        "fix_gamma": "False", 
        "momentum": "0.9", 
        "use_global_stats": "True"
      }, 
      "inputs": []
    }, 
    {
      "op": "null", 
      "name": "stage1_unit3_bn1_beta", 
      "attr": {
        "eps": "2e-05", 
        "fix_gamma": "False", 
        "momentum": "0.9", 
        "use_global_stats": "True"
      }, 
      "inputs": []
    }, 
    {
      "op": "null", 
      "name": "stage1_unit3_bn1_moving_mean", 
      "attr": {
        "__init__": "[\"zero\", {}]", 
        "eps": "2e-05", 
        "fix_gamma": "False", 
        "momentum": "0.9", 
        "use_global_stats": "True"
      }, 
      "inputs": []
    }, 
    {
      "op": "null", 
      "name": "stage1_unit3_bn1_moving_var", 
      "attr": {
        "__init__": "[\"one\", {}]", 
        "eps": "2e-05", 
        "fix_gamma": "False", 
        "momentum": "0.9", 
        "use_global_stats": "True"
      }, 
      "inputs": []
    }, 
    {
      "op": "BatchNorm", 
      "name": "stage1_unit3_bn1", 
      "attr": {
        "eps": "2e-05", 
        "fix_gamma": "False", 
        "momentum": "0.9", 
        "use_global_stats": "True"
      }, 
      "inputs": [[66, 0, 0], [67, 0, 0], [68, 0, 0], [69, 0, 1], [70, 0, 1]]
    }, 
    {
      "op": "Activation", 
      "name": "stage1_unit3_relu1", 
      "attr": {"act_type": "relu"}, 
      "inputs": [[71, 0, 0]]
    }, 
    {
      "op": "null", 
      "name": "stage1_unit3_conv1_weight", 
      "attr": {
        "kernel": "(1, 1)", 
        "no_bias": "True", 
        "num_filter": "64", 
        "pad": "(0, 0)", 
        "stride": "(1, 1)", 
        "workspace": "512"
      }, 
      "inputs": []
    }, 
    {
      "op": "Convolution", 
      "name": "stage1_unit3_conv1", 
      "attr": {
        "kernel": "(1, 1)", 
        "no_bias": "True", 
        "num_filter": "64", 
        "pad": "(0, 0)", 
        "stride": "(1, 1)", 
        "workspace": "512"
      }, 
      "inputs": [[72, 0, 0], [73, 0, 0]]
    }, 
    {
      "op": "null", 
      "name": "stage1_unit3_bn2_gamma", 
      "attr": {
        "eps": "2e-05", 
        "fix_gamma": "False", 
        "momentum": "0.9", 
        "use_global_stats": "True"
      }, 
      "inputs": []
    }, 
    {
      "op": "null", 
      "name": "stage1_unit3_bn2_beta", 
      "attr": {
        "eps": "2e-05", 
        "fix_gamma": "False", 
        "momentum": "0.9", 
        "use_global_stats": "True"
      }, 
      "inputs": []
    }, 
    {
      "op": "null", 
      "name": "stage1_unit3_bn2_moving_mean", 
      "attr": {
        "__init__": "[\"zero\", {}]", 
        "eps": "2e-05", 
        "fix_gamma": "False", 
        "momentum": "0.9", 
        "use_global_stats": "True"
      }, 
      "inputs": []
    }, 
    {
      "op": "null", 
      "name": "stage1_unit3_bn2_moving_var", 
      "attr": {
        "__init__": "[\"one\", {}]", 
        "eps": "2e-05", 
        "fix_gamma": "False", 
        "momentum": "0.9", 
        "use_global_stats": "True"
      }, 
      "inputs": []
    }, 
    {
      "op": "BatchNorm", 
      "name": "stage1_unit3_bn2", 
      "attr": {
        "eps": "2e-05", 
        "fix_gamma": "False", 
        "momentum": "0.9", 
        "use_global_stats": "True"
      }, 
      "inputs": [[74, 0, 0], [75, 0, 0], [76, 0, 0], [77, 0, 1], [78, 0, 1]]
    }, 
    {
      "op": "Activation", 
      "name": "stage1_unit3_relu2", 
      "attr": {"act_type": "relu"}, 
      "inputs": [[79, 0, 0]]
    }, 
    {
      "op": "null", 
      "name": "stage1_unit3_conv2_weight", 
      "attr": {
        "kernel": "(3, 3)", 
        "no_bias": "True", 
        "num_filter": "64", 
        "pad": "(1, 1)", 
        "stride": "(1, 1)", 
        "workspace": "512"
      }, 
      "inputs": []
    }, 
    {
      "op": "Convolution", 
      "name": "stage1_unit3_conv2", 
      "attr": {
        "kernel": "(3, 3)", 
        "no_bias": "True", 
        "num_filter": "64", 
        "pad": "(1, 1)", 
        "stride": "(1, 1)", 
        "workspace": "512"
      }, 
      "inputs": [[80, 0, 0], [81, 0, 0]]
    }, 
    {
      "op": "null", 
      "name": "stage1_unit3_bn3_gamma", 
      "attr": {
        "eps": "2e-05", 
        "fix_gamma": "False", 
        "momentum": "0.9", 
        "use_global_stats": "True"
      }, 
      "inputs": []
    }, 
    {
      "op": "null", 
      "name": "stage1_unit3_bn3_beta", 
      "attr": {
        "eps": "2e-05", 
        "fix_gamma": "False", 
        "momentum": "0.9", 
        "use_global_stats": "True"
      }, 
      "inputs": []
    }, 
    {
      "op": "null", 
      "name": "stage1_unit3_bn3_moving_mean", 
      "attr": {
        "__init__": "[\"zero\", {}]", 
        "eps": "2e-05", 
        "fix_gamma": "False", 
        "momentum": "0.9", 
        "use_global_stats": "True"
      }, 
      "inputs": []
    }, 
    {
      "op": "null", 
      "name": "stage1_unit3_bn3_moving_var", 
      "attr": {
        "__init__": "[\"one\", {}]", 
        "eps": "2e-05", 
        "fix_gamma": "False", 
        "momentum": "0.9", 
        "use_global_stats": "True"
      }, 
      "inputs": []
    }, 
    {
      "op": "BatchNorm", 
      "name": "stage1_unit3_bn3", 
      "attr": {
        "eps": "2e-05", 
        "fix_gamma": "False", 
        "momentum": "0.9", 
        "use_global_stats": "True"
      }, 
      "inputs": [[82, 0, 0], [83, 0, 0], [84, 0, 0], [85, 0, 1], [86, 0, 1]]
    }, 
    {
      "op": "Activation", 
      "name": "stage1_unit3_relu3", 
      "attr": {"act_type": "relu"}, 
      "inputs": [[87, 0, 0]]
    }, 
    {
      "op": "null", 
      "name": "stage1_unit3_conv3_weight", 
      "attr": {
        "kernel": "(1, 1)", 
        "no_bias": "True", 
        "num_filter": "256", 
        "pad": "(0, 0)", 
        "stride": "(1, 1)", 
        "workspace": "512"
      }, 
      "inputs": []
    }, 
    {
      "op": "Convolution", 
      "name": "stage1_unit3_conv3", 
      "attr": {
        "kernel": "(1, 1)", 
        "no_bias": "True", 
        "num_filter": "256", 
        "pad": "(0, 0)", 
        "stride": "(1, 1)", 
        "workspace": "512"
      }, 
      "inputs": [[88, 0, 0], [89, 0, 0]]
    }, 
    {
      "op": "elemwise_add", 
      "name": "_plus2", 
      "inputs": [[90, 0, 0], [66, 0, 0]]
    }, 
    {
      "op": "null", 
      "name": "stage2_unit1_bn1_gamma", 
      "attr": {
        "eps": "2e-05", 
        "fix_gamma": "False", 
        "momentum": "0.9", 
        "use_global_stats": "True"
      }, 
      "inputs": []
    }, 
    {
      "op": "null", 
      "name": "stage2_unit1_bn1_beta", 
      "attr": {
        "eps": "2e-05", 
        "fix_gamma": "False", 
        "momentum": "0.9", 
        "use_global_stats": "True"
      }, 
      "inputs": []
    }, 
    {
      "op": "null", 
      "name": "stage2_unit1_bn1_moving_mean", 
      "attr": {
        "__init__": "[\"zero\", {}]", 
        "eps": "2e-05", 
        "fix_gamma": "False", 
        "momentum": "0.9", 
        "use_global_stats": "True"
      }, 
      "inputs": []
    }, 
    {
      "op": "null", 
      "name": "stage2_unit1_bn1_moving_var", 
      "attr": {
        "__init__": "[\"one\", {}]", 
        "eps": "2e-05", 
        "fix_gamma": "False", 
        "momentum": "0.9", 
        "use_global_stats": "True"
      }, 
      "inputs": []
    }, 
    {
      "op": "BatchNorm", 
      "name": "stage2_unit1_bn1", 
      "attr": {
        "eps": "2e-05", 
        "fix_gamma": "False", 
        "momentum": "0.9", 
        "use_global_stats": "True"
      }, 
      "inputs": [[91, 0, 0], [92, 0, 0], [93, 0, 0], [94, 0, 1], [95, 0, 1]]
    }, 
    {
      "op": "Activation", 
      "name": "stage2_unit1_relu1", 
      "attr": {"act_type": "relu"}, 
      "inputs": [[96, 0, 0]]
    }, 
    {
      "op": "null", 
      "name": "stage2_unit1_conv1_weight", 
      "attr": {
        "kernel": "(1, 1)", 
        "no_bias": "True", 
        "num_filter": "128", 
        "pad": "(0, 0)", 
        "stride": "(1, 1)", 
        "workspace": "512"
      }, 
      "inputs": []
    }, 
    {
      "op": "Convolution", 
      "name": "stage2_unit1_conv1", 
      "attr": {
        "kernel": "(1, 1)", 
        "no_bias": "True", 
        "num_filter": "128", 
        "pad": "(0, 0)", 
        "stride": "(1, 1)", 
        "workspace": "512"
      }, 
      "inputs": [[97, 0, 0], [98, 0, 0]]
    }, 
    {
      "op": "null", 
      "name": "stage2_unit1_bn2_gamma", 
      "attr": {
        "eps": "2e-05", 
        "fix_gamma": "False", 
        "momentum": "0.9", 
        "use_global_stats": "True"
      }, 
      "inputs": []
    }, 
    {
      "op": "null", 
      "name": "stage2_unit1_bn2_beta", 
      "attr": {
        "eps": "2e-05", 
        "fix_gamma": "False", 
        "momentum": "0.9", 
        "use_global_stats": "True"
      }, 
      "inputs": []
    }, 
    {
      "op": "null", 
      "name": "stage2_unit1_bn2_moving_mean", 
      "attr": {
        "__init__": "[\"zero\", {}]", 
        "eps": "2e-05", 
        "fix_gamma": "False", 
        "momentum": "0.9", 
        "use_global_stats": "True"
      }, 
      "inputs": []
    }, 
    {
      "op": "null", 
      "name": "stage2_unit1_bn2_moving_var", 
      "attr": {
        "__init__": "[\"one\", {}]", 
        "eps": "2e-05", 
        "fix_gamma": "False", 
        "momentum": "0.9", 
        "use_global_stats": "True"
      }, 
      "inputs": []
    }, 
    {
      "op": "BatchNorm", 
      "name": "stage2_unit1_bn2", 
      "attr": {
        "eps": "2e-05", 
        "fix_gamma": "False", 
        "momentum": "0.9", 
        "use_global_stats": "True"
      }, 
      "inputs": [[99, 0, 0], [100, 0, 0], [101, 0, 0], [102, 0, 1], [103, 0, 1]]
    }, 
    {
      "op": "Activation", 
      "name": "stage2_unit1_relu2", 
      "attr": {"act_type": "relu"}, 
      "inputs": [[104, 0, 0]]
    }, 
    {
      "op": "null", 
      "name": "stage2_unit1_conv2_weight", 
      "attr": {
        "kernel": "(3, 3)", 
        "no_bias": "True", 
        "num_filter": "128", 
        "pad": "(1, 1)", 
        "stride": "(2, 2)", 
        "workspace": "512"
      }, 
      "inputs": []
    }, 
    {
      "op": "Convolution", 
      "name": "stage2_unit1_conv2", 
      "attr": {
        "kernel": "(3, 3)", 
        "no_bias": "True", 
        "num_filter": "128", 
        "pad": "(1, 1)", 
        "stride": "(2, 2)", 
        "workspace": "512"
      }, 
      "inputs": [[105, 0, 0], [106, 0, 0]]
    }, 
    {
      "op": "null", 
      "name": "stage2_unit1_bn3_gamma", 
      "attr": {
        "eps": "2e-05", 
        "fix_gamma": "False", 
        "momentum": "0.9", 
        "use_global_stats": "True"
      }, 
      "inputs": []
    }, 
    {
      "op": "null", 
      "name": "stage2_unit1_bn3_beta", 
      "attr": {
        "eps": "2e-05", 
        "fix_gamma": "False", 
        "momentum": "0.9", 
        "use_global_stats": "True"
      }, 
      "inputs": []
    }, 
    {
      "op": "null", 
      "name": "stage2_unit1_bn3_moving_mean", 
      "attr": {
        "__init__": "[\"zero\", {}]", 
        "eps": "2e-05", 
        "fix_gamma": "False", 
        "momentum": "0.9", 
        "use_global_stats": "True"
      }, 
      "inputs": []
    }, 
    {
      "op": "null", 
      "name": "stage2_unit1_bn3_moving_var", 
      "attr": {
        "__init__": "[\"one\", {}]", 
        "eps": "2e-05", 
        "fix_gamma": "False", 
        "momentum": "0.9", 
        "use_global_stats": "True"
      }, 
      "inputs": []
    }, 
    {
      "op": "BatchNorm", 
      "name": "stage2_unit1_bn3", 
      "attr": {
        "eps": "2e-05", 
        "fix_gamma": "False", 
        "momentum": "0.9", 
        "use_global_stats": "True"
      }, 
      "inputs": [[107, 0, 0], [108, 0, 0], [109, 0, 0], [110, 0, 1], [111, 0, 1]]
    }, 
    {
      "op": "Activation", 
      "name": "stage2_unit1_relu3", 
      "attr": {"act_type": "relu"}, 
      "inputs": [[112, 0, 0]]
    }, 
    {
      "op": "null", 
      "name": "stage2_unit1_conv3_weight", 
      "attr": {
        "kernel": "(1, 1)", 
        "no_bias": "True", 
        "num_filter": "512", 
        "pad": "(0, 0)", 
        "stride": "(1, 1)", 
        "workspace": "512"
      }, 
      "inputs": []
    }, 
    {
      "op": "Convolution", 
      "name": "stage2_unit1_conv3", 
      "attr": {
        "kernel": "(1, 1)", 
        "no_bias": "True", 
        "num_filter": "512", 
        "pad": "(0, 0)", 
        "stride": "(1, 1)", 
        "workspace": "512"
      }, 
      "inputs": [[113, 0, 0], [114, 0, 0]]
    }, 
    {
      "op": "null", 
      "name": "stage2_unit1_sc_weight", 
      "attr": {
        "kernel": "(1, 1)", 
        "no_bias": "True", 
        "num_filter": "512", 
        "stride": "(2, 2)", 
        "workspace": "512"
      }, 
      "inputs": []
    }, 
    {
      "op": "Convolution", 
      "name": "stage2_unit1_sc", 
      "attr": {
        "kernel": "(1, 1)", 
        "no_bias": "True", 
        "num_filter": "512", 
        "stride": "(2, 2)", 
        "workspace": "512"
      }, 
      "inputs": [[97, 0, 0], [116, 0, 0]]
    }, 
    {
      "op": "elemwise_add", 
      "name": "_plus3", 
      "inputs": [[115, 0, 0], [117, 0, 0]]
    }, 
    {
      "op": "null", 
      "name": "stage2_unit2_bn1_gamma", 
      "attr": {
        "eps": "2e-05", 
        "fix_gamma": "False", 
        "momentum": "0.9", 
        "use_global_stats": "True"
      }, 
      "inputs": []
    }, 
    {
      "op": "null", 
      "name": "stage2_unit2_bn1_beta", 
      "attr": {
        "eps": "2e-05", 
        "fix_gamma": "False", 
        "momentum": "0.9", 
        "use_global_stats": "True"
      }, 
      "inputs": []
    }, 
    {
      "op": "null", 
      "name": "stage2_unit2_bn1_moving_mean", 
      "attr": {
        "__init__": "[\"zero\", {}]", 
        "eps": "2e-05", 
        "fix_gamma": "False", 
        "momentum": "0.9", 
        "use_global_stats": "True"
      }, 
      "inputs": []
    }, 
    {
      "op": "null", 
      "name": "stage2_unit2_bn1_moving_var", 
      "attr": {
        "__init__": "[\"one\", {}]", 
        "eps": "2e-05", 
        "fix_gamma": "False", 
        "momentum": "0.9", 
        "use_global_stats": "True"
      }, 
      "inputs": []
    }, 
    {
      "op": "BatchNorm", 
      "name": "stage2_unit2_bn1", 
      "attr": {
        "eps": "2e-05", 
        "fix_gamma": "False", 
        "momentum": "0.9", 
        "use_global_stats": "True"
      }, 
      "inputs": [[118, 0, 0], [119, 0, 0], [120, 0, 0], [121, 0, 1], [122, 0, 1]]
    }, 
    {
      "op": "Activation", 
      "name": "stage2_unit2_relu1", 
      "attr": {"act_type": "relu"}, 
      "inputs": [[123, 0, 0]]
    }, 
    {
      "op": "null", 
      "name": "stage2_unit2_conv1_weight", 
      "attr": {
        "kernel": "(1, 1)", 
        "no_bias": "True", 
        "num_filter": "128", 
        "pad": "(0, 0)", 
        "stride": "(1, 1)", 
        "workspace": "512"
      }, 
      "inputs": []
    }, 
    {
      "op": "Convolution", 
      "name": "stage2_unit2_conv1", 
      "attr": {
        "kernel": "(1, 1)", 
        "no_bias": "True", 
        "num_filter": "128", 
        "pad": "(0, 0)", 
        "stride": "(1, 1)", 
        "workspace": "512"
      }, 
      "inputs": [[124, 0, 0], [125, 0, 0]]
    }, 
    {
      "op": "null", 
      "name": "stage2_unit2_bn2_gamma", 
      "attr": {
        "eps": "2e-05", 
        "fix_gamma": "False", 
        "momentum": "0.9", 
        "use_global_stats": "True"
      }, 
      "inputs": []
    }, 
    {
      "op": "null", 
      "name": "stage2_unit2_bn2_beta", 
      "attr": {
        "eps": "2e-05", 
        "fix_gamma": "False", 
        "momentum": "0.9", 
        "use_global_stats": "True"
      }, 
      "inputs": []
    }, 
    {
      "op": "null", 
      "name": "stage2_unit2_bn2_moving_mean", 
      "attr": {
        "__init__": "[\"zero\", {}]", 
        "eps": "2e-05", 
        "fix_gamma": "False", 
        "momentum": "0.9", 
        "use_global_stats": "True"
      }, 
      "inputs": []
    }, 
    {
      "op": "null", 
      "name": "stage2_unit2_bn2_moving_var", 
      "attr": {
        "__init__": "[\"one\", {}]", 
        "eps": "2e-05", 
        "fix_gamma": "False", 
        "momentum": "0.9", 
        "use_global_stats": "True"
      }, 
      "inputs": []
    }, 
    {
      "op": "BatchNorm", 
      "name": "stage2_unit2_bn2", 
      "attr": {
        "eps": "2e-05", 
        "fix_gamma": "False", 
        "momentum": "0.9", 
        "use_global_stats": "True"
      }, 
      "inputs": [[126, 0, 0], [127, 0, 0], [128, 0, 0], [129, 0, 1], [130, 0, 1]]
    }, 
    {
      "op": "Activation", 
      "name": "stage2_unit2_relu2", 
      "attr": {"act_type": "relu"}, 
      "inputs": [[131, 0, 0]]
    }, 
    {
      "op": "null", 
      "name": "stage2_unit2_conv2_weight", 
      "attr": {
        "kernel": "(3, 3)", 
        "no_bias": "True", 
        "num_filter": "128", 
        "pad": "(1, 1)", 
        "stride": "(1, 1)", 
        "workspace": "512"
      }, 
      "inputs": []
    }, 
    {
      "op": "Convolution", 
      "name": "stage2_unit2_conv2", 
      "attr": {
        "kernel": "(3, 3)", 
        "no_bias": "True", 
        "num_filter": "128", 
        "pad": "(1, 1)", 
        "stride": "(1, 1)", 
        "workspace": "512"
      }, 
      "inputs": [[132, 0, 0], [133, 0, 0]]
    }, 
    {
      "op": "null", 
      "name": "stage2_unit2_bn3_gamma", 
      "attr": {
        "eps": "2e-05", 
        "fix_gamma": "False", 
        "momentum": "0.9", 
        "use_global_stats": "True"
      }, 
      "inputs": []
    }, 
    {
      "op": "null", 
      "name": "stage2_unit2_bn3_beta", 
      "attr": {
        "eps": "2e-05", 
        "fix_gamma": "False", 
        "momentum": "0.9", 
        "use_global_stats": "True"
      }, 
      "inputs": []
    }, 
    {
      "op": "null", 
      "name": "stage2_unit2_bn3_moving_mean", 
      "attr": {
        "__init__": "[\"zero\", {}]", 
        "eps": "2e-05", 
        "fix_gamma": "False", 
        "momentum": "0.9", 
        "use_global_stats": "True"
      }, 
      "inputs": []
    }, 
    {
      "op": "null", 
      "name": "stage2_unit2_bn3_moving_var", 
      "attr": {
        "__init__": "[\"one\", {}]", 
        "eps": "2e-05", 
        "fix_gamma": "False", 
        "momentum": "0.9", 
        "use_global_stats": "True"
      }, 
      "inputs": []
    }, 
    {
      "op": "BatchNorm", 
      "name": "stage2_unit2_bn3", 
      "attr": {
        "eps": "2e-05", 
        "fix_gamma": "False", 
        "momentum": "0.9", 
        "use_global_stats": "True"
      }, 
      "inputs": [[134, 0, 0], [135, 0, 0], [136, 0, 0], [137, 0, 1], [138, 0, 1]]
    }, 
    {
      "op": "Activation", 
      "name": "stage2_unit2_relu3", 
      "attr": {"act_type": "relu"}, 
      "inputs": [[139, 0, 0]]
    }, 
    {
      "op": "null", 
      "name": "stage2_unit2_conv3_weight", 
      "attr": {
        "kernel": "(1, 1)", 
        "no_bias": "True", 
        "num_filter": "512", 
        "pad": "(0, 0)", 
        "stride": "(1, 1)", 
        "workspace": "512"
      }, 
      "inputs": []
    }, 
    {
      "op": "Convolution", 
      "name": "stage2_unit2_conv3", 
      "attr": {
        "kernel": "(1, 1)", 
        "no_bias": "True", 
        "num_filter": "512", 
        "pad": "(0, 0)", 
        "stride": "(1, 1)", 
        "workspace": "512"
      }, 
      "inputs": [[140, 0, 0], [141, 0, 0]]
    }, 
    {
      "op": "elemwise_add", 
      "name": "_plus4", 
      "inputs": [[142, 0, 0], [118, 0, 0]]
    }, 
    {
      "op": "null", 
      "name": "stage2_unit3_bn1_gamma", 
      "attr": {
        "eps": "2e-05", 
        "fix_gamma": "False", 
        "momentum": "0.9", 
        "use_global_stats": "True"
      }, 
      "inputs": []
    }, 
    {
      "op": "null", 
      "name": "stage2_unit3_bn1_beta", 
      "attr": {
        "eps": "2e-05", 
        "fix_gamma": "False", 
        "momentum": "0.9", 
        "use_global_stats": "True"
      }, 
      "inputs": []
    }, 
    {
      "op": "null", 
      "name": "stage2_unit3_bn1_moving_mean", 
      "attr": {
        "__init__": "[\"zero\", {}]", 
        "eps": "2e-05", 
        "fix_gamma": "False", 
        "momentum": "0.9", 
        "use_global_stats": "True"
      }, 
      "inputs": []
    }, 
    {
      "op": "null", 
      "name": "stage2_unit3_bn1_moving_var", 
      "attr": {
        "__init__": "[\"one\", {}]", 
        "eps": "2e-05", 
        "fix_gamma": "False", 
        "momentum": "0.9", 
        "use_global_stats": "True"
      }, 
      "inputs": []
    }, 
    {
      "op": "BatchNorm", 
      "name": "stage2_unit3_bn1", 
      "attr": {
        "eps": "2e-05", 
        "fix_gamma": "False", 
        "momentum": "0.9", 
        "use_global_stats": "True"
      }, 
      "inputs": [[143, 0, 0], [144, 0, 0], [145, 0, 0], [146, 0, 1], [147, 0, 1]]
    }, 
    {
      "op": "Activation", 
      "name": "stage2_unit3_relu1", 
      "attr": {"act_type": "relu"}, 
      "inputs": [[148, 0, 0]]
    }, 
    {
      "op": "null", 
      "name": "stage2_unit3_conv1_weight", 
      "attr": {
        "kernel": "(1, 1)", 
        "no_bias": "True", 
        "num_filter": "128", 
        "pad": "(0, 0)", 
        "stride": "(1, 1)", 
        "workspace": "512"
      }, 
      "inputs": []
    }, 
    {
      "op": "Convolution", 
      "name": "stage2_unit3_conv1", 
      "attr": {
        "kernel": "(1, 1)", 
        "no_bias": "True", 
        "num_filter": "128", 
        "pad": "(0, 0)", 
        "stride": "(1, 1)", 
        "workspace": "512"
      }, 
      "inputs": [[149, 0, 0], [150, 0, 0]]
    }, 
    {
      "op": "null", 
      "name": "stage2_unit3_bn2_gamma", 
      "attr": {
        "eps": "2e-05", 
        "fix_gamma": "False", 
        "momentum": "0.9", 
        "use_global_stats": "True"
      }, 
      "inputs": []
    }, 
    {
      "op": "null", 
      "name": "stage2_unit3_bn2_beta", 
      "attr": {
        "eps": "2e-05", 
        "fix_gamma": "False", 
        "momentum": "0.9", 
        "use_global_stats": "True"
      }, 
      "inputs": []
    }, 
    {
      "op": "null", 
      "name": "stage2_unit3_bn2_moving_mean", 
      "attr": {
        "__init__": "[\"zero\", {}]", 
        "eps": "2e-05", 
        "fix_gamma": "False", 
        "momentum": "0.9", 
        "use_global_stats": "True"
      }, 
      "inputs": []
    }, 
    {
      "op": "null", 
      "name": "stage2_unit3_bn2_moving_var", 
      "attr": {
        "__init__": "[\"one\", {}]", 
        "eps": "2e-05", 
        "fix_gamma": "False", 
        "momentum": "0.9", 
        "use_global_stats": "True"
      }, 
      "inputs": []
    }, 
    {
      "op": "BatchNorm", 
      "name": "stage2_unit3_bn2", 
      "attr": {
        "eps": "2e-05", 
        "fix_gamma": "False", 
        "momentum": "0.9", 
        "use_global_stats": "True"
      }, 
      "inputs": [[151, 0, 0], [152, 0, 0], [153, 0, 0], [154, 0, 1], [155, 0, 1]]
    }, 
    {
      "op": "Activation", 
      "name": "stage2_unit3_relu2", 
      "attr": {"act_type": "relu"}, 
      "inputs": [[156, 0, 0]]
    }, 
    {
      "op": "null", 
      "name": "stage2_unit3_conv2_weight", 
      "attr": {
        "kernel": "(3, 3)", 
        "no_bias": "True", 
        "num_filter": "128", 
        "pad": "(1, 1)", 
        "stride": "(1, 1)", 
        "workspace": "512"
      }, 
      "inputs": []
    }, 
    {
      "op": "Convolution", 
      "name": "stage2_unit3_conv2", 
      "attr": {
        "kernel": "(3, 3)", 
        "no_bias": "True", 
        "num_filter": "128", 
        "pad": "(1, 1)", 
        "stride": "(1, 1)", 
        "workspace": "512"
      }, 
      "inputs": [[157, 0, 0], [158, 0, 0]]
    }, 
    {
      "op": "null", 
      "name": "stage2_unit3_bn3_gamma", 
      "attr": {
        "eps": "2e-05", 
        "fix_gamma": "False", 
        "momentum": "0.9", 
        "use_global_stats": "True"
      }, 
      "inputs": []
    }, 
    {
      "op": "null", 
      "name": "stage2_unit3_bn3_beta", 
      "attr": {
        "eps": "2e-05", 
        "fix_gamma": "False", 
        "momentum": "0.9", 
        "use_global_stats": "True"
      }, 
      "inputs": []
    }, 
    {
      "op": "null", 
      "name": "stage2_unit3_bn3_moving_mean", 
      "attr": {
        "__init__": "[\"zero\", {}]", 
        "eps": "2e-05", 
        "fix_gamma": "False", 
        "momentum": "0.9", 
        "use_global_stats": "True"
      }, 
      "inputs": []
    }, 
    {
      "op": "null", 
      "name": "stage2_unit3_bn3_moving_var", 
      "attr": {
        "__init__": "[\"one\", {}]", 
        "eps": "2e-05", 
        "fix_gamma": "False", 
        "momentum": "0.9", 
        "use_global_stats": "True"
      }, 
      "inputs": []
    }, 
    {
      "op": "BatchNorm", 
      "name": "stage2_unit3_bn3", 
      "attr": {
        "eps": "2e-05", 
        "fix_gamma": "False", 
        "momentum": "0.9", 
        "use_global_stats": "True"
      }, 
      "inputs": [[159, 0, 0], [160, 0, 0], [161, 0, 0], [162, 0, 1], [163, 0, 1]]
    }, 
    {
      "op": "Activation", 
      "name": "stage2_unit3_relu3", 
      "attr": {"act_type": "relu"}, 
      "inputs": [[164, 0, 0]]
    }, 
    {
      "op": "null", 
      "name": "stage2_unit3_conv3_weight", 
      "attr": {
        "kernel": "(1, 1)", 
        "no_bias": "True", 
        "num_filter": "512", 
        "pad": "(0, 0)", 
        "stride": "(1, 1)", 
        "workspace": "512"
      }, 
      "inputs": []
    }, 
    {
      "op": "Convolution", 
      "name": "stage2_unit3_conv3", 
      "attr": {
        "kernel": "(1, 1)", 
        "no_bias": "True", 
        "num_filter": "512", 
        "pad": "(0, 0)", 
        "stride": "(1, 1)", 
        "workspace": "512"
      }, 
      "inputs": [[165, 0, 0], [166, 0, 0]]
    }, 
    {
      "op": "elemwise_add", 
      "name": "_plus5", 
      "inputs": [[167, 0, 0], [143, 0, 0]]
    }, 
    {
      "op": "null", 
      "name": "stage2_unit4_bn1_gamma", 
      "attr": {
        "eps": "2e-05", 
        "fix_gamma": "False", 
        "momentum": "0.9", 
        "use_global_stats": "True"
      }, 
      "inputs": []
    }, 
    {
      "op": "null", 
      "name": "stage2_unit4_bn1_beta", 
      "attr": {
        "eps": "2e-05", 
        "fix_gamma": "False", 
        "momentum": "0.9", 
        "use_global_stats": "True"
      }, 
      "inputs": []
    }, 
    {
      "op": "null", 
      "name": "stage2_unit4_bn1_moving_mean", 
      "attr": {
        "__init__": "[\"zero\", {}]", 
        "eps": "2e-05", 
        "fix_gamma": "False", 
        "momentum": "0.9", 
        "use_global_stats": "True"
      }, 
      "inputs": []
    }, 
    {
      "op": "null", 
      "name": "stage2_unit4_bn1_moving_var", 
      "attr": {
        "__init__": "[\"one\", {}]", 
        "eps": "2e-05", 
        "fix_gamma": "False", 
        "momentum": "0.9", 
        "use_global_stats": "True"
      }, 
      "inputs": []
    }, 
    {
      "op": "BatchNorm", 
      "name": "stage2_unit4_bn1", 
      "attr": {
        "eps": "2e-05", 
        "fix_gamma": "False", 
        "momentum": "0.9", 
        "use_global_stats": "True"
      }, 
      "inputs": [[168, 0, 0], [169, 0, 0], [170, 0, 0], [171, 0, 1], [172, 0, 1]]
    }, 
    {
      "op": "Activation", 
      "name": "stage2_unit4_relu1", 
      "attr": {"act_type": "relu"}, 
      "inputs": [[173, 0, 0]]
    }, 
    {
      "op": "null", 
      "name": "stage2_unit4_conv1_weight", 
      "attr": {
        "kernel": "(1, 1)", 
        "no_bias": "True", 
        "num_filter": "128", 
        "pad": "(0, 0)", 
        "stride": "(1, 1)", 
        "workspace": "512"
      }, 
      "inputs": []
    }, 
    {
      "op": "Convolution", 
      "name": "stage2_unit4_conv1", 
      "attr": {
        "kernel": "(1, 1)", 
        "no_bias": "True", 
        "num_filter": "128", 
        "pad": "(0, 0)", 
        "stride": "(1, 1)", 
        "workspace": "512"
      }, 
      "inputs": [[174, 0, 0], [175, 0, 0]]
    }, 
    {
      "op": "null", 
      "name": "stage2_unit4_bn2_gamma", 
      "attr": {
        "eps": "2e-05", 
        "fix_gamma": "False", 
        "momentum": "0.9", 
        "use_global_stats": "True"
      }, 
      "inputs": []
    }, 
    {
      "op": "null", 
      "name": "stage2_unit4_bn2_beta", 
      "attr": {
        "eps": "2e-05", 
        "fix_gamma": "False", 
        "momentum": "0.9", 
        "use_global_stats": "True"
      }, 
      "inputs": []
    }, 
    {
      "op": "null", 
      "name": "stage2_unit4_bn2_moving_mean", 
      "attr": {
        "__init__": "[\"zero\", {}]", 
        "eps": "2e-05", 
        "fix_gamma": "False", 
        "momentum": "0.9", 
        "use_global_stats": "True"
      }, 
      "inputs": []
    }, 
    {
      "op": "null", 
      "name": "stage2_unit4_bn2_moving_var", 
      "attr": {
        "__init__": "[\"one\", {}]", 
        "eps": "2e-05", 
        "fix_gamma": "False", 
        "momentum": "0.9", 
        "use_global_stats": "True"
      }, 
      "inputs": []
    }, 
    {
      "op": "BatchNorm", 
      "name": "stage2_unit4_bn2", 
      "attr": {
        "eps": "2e-05", 
        "fix_gamma": "False", 
        "momentum": "0.9", 
        "use_global_stats": "True"
      }, 
      "inputs": [[176, 0, 0], [177, 0, 0], [178, 0, 0], [179, 0, 1], [180, 0, 1]]
    }, 
    {
      "op": "Activation", 
      "name": "stage2_unit4_relu2", 
      "attr": {"act_type": "relu"}, 
      "inputs": [[181, 0, 0]]
    }, 
    {
      "op": "null", 
      "name": "stage2_unit4_conv2_weight", 
      "attr": {
        "kernel": "(3, 3)", 
        "no_bias": "True", 
        "num_filter": "128", 
        "pad": "(1, 1)", 
        "stride": "(1, 1)", 
        "workspace": "512"
      }, 
      "inputs": []
    }, 
    {
      "op": "Convolution", 
      "name": "stage2_unit4_conv2", 
      "attr": {
        "kernel": "(3, 3)", 
        "no_bias": "True", 
        "num_filter": "128", 
        "pad": "(1, 1)", 
        "stride": "(1, 1)", 
        "workspace": "512"
      }, 
      "inputs": [[182, 0, 0], [183, 0, 0]]
    }, 
    {
      "op": "null", 
      "name": "stage2_unit4_bn3_gamma", 
      "attr": {
        "eps": "2e-05", 
        "fix_gamma": "False", 
        "momentum": "0.9", 
        "use_global_stats": "True"
      }, 
      "inputs": []
    }, 
    {
      "op": "null", 
      "name": "stage2_unit4_bn3_beta", 
      "attr": {
        "eps": "2e-05", 
        "fix_gamma": "False", 
        "momentum": "0.9", 
        "use_global_stats": "True"
      }, 
      "inputs": []
    }, 
    {
      "op": "null", 
      "name": "stage2_unit4_bn3_moving_mean", 
      "attr": {
        "__init__": "[\"zero\", {}]", 
        "eps": "2e-05", 
        "fix_gamma": "False", 
        "momentum": "0.9", 
        "use_global_stats": "True"
      }, 
      "inputs": []
    }, 
    {
      "op": "null", 
      "name": "stage2_unit4_bn3_moving_var", 
      "attr": {
        "__init__": "[\"one\", {}]", 
        "eps": "2e-05", 
        "fix_gamma": "False", 
        "momentum": "0.9", 
        "use_global_stats": "True"
      }, 
      "inputs": []
    }, 
    {
      "op": "BatchNorm", 
      "name": "stage2_unit4_bn3", 
      "attr": {
        "eps": "2e-05", 
        "fix_gamma": "False", 
        "momentum": "0.9", 
        "use_global_stats": "True"
      }, 
      "inputs": [[184, 0, 0], [185, 0, 0], [186, 0, 0], [187, 0, 1], [188, 0, 1]]
    }, 
    {
      "op": "Activation", 
      "name": "stage2_unit4_relu3", 
      "attr": {"act_type": "relu"}, 
      "inputs": [[189, 0, 0]]
    }, 
    {
      "op": "null", 
      "name": "stage2_unit4_conv3_weight", 
      "attr": {
        "kernel": "(1, 1)", 
        "no_bias": "True", 
        "num_filter": "512", 
        "pad": "(0, 0)", 
        "stride": "(1, 1)", 
        "workspace": "512"
      }, 
      "inputs": []
    }, 
    {
      "op": "Convolution", 
      "name": "stage2_unit4_conv3", 
      "attr": {
        "kernel": "(1, 1)", 
        "no_bias": "True", 
        "num_filter": "512", 
        "pad": "(0, 0)", 
        "stride": "(1, 1)", 
        "workspace": "512"
      }, 
      "inputs": [[190, 0, 0], [191, 0, 0]]
    }, 
    {
      "op": "elemwise_add", 
      "name": "_plus6", 
      "inputs": [[192, 0, 0], [168, 0, 0]]
    }, 
    {
      "op": "null", 
      "name": "stage3_unit1_bn1_gamma", 
      "attr": {
        "eps": "2e-05", 
        "fix_gamma": "False", 
        "momentum": "0.9", 
        "use_global_stats": "True"
      }, 
      "inputs": []
    }, 
    {
      "op": "null", 
      "name": "stage3_unit1_bn1_beta", 
      "attr": {
        "eps": "2e-05", 
        "fix_gamma": "False", 
        "momentum": "0.9", 
        "use_global_stats": "True"
      }, 
      "inputs": []
    }, 
    {
      "op": "null", 
      "name": "stage3_unit1_bn1_moving_mean", 
      "attr": {
        "__init__": "[\"zero\", {}]", 
        "eps": "2e-05", 
        "fix_gamma": "False", 
        "momentum": "0.9", 
        "use_global_stats": "True"
      }, 
      "inputs": []
    }, 
    {
      "op": "null", 
      "name": "stage3_unit1_bn1_moving_var", 
      "attr": {
        "__init__": "[\"one\", {}]", 
        "eps": "2e-05", 
        "fix_gamma": "False", 
        "momentum": "0.9", 
        "use_global_stats": "True"
      }, 
      "inputs": []
    }, 
    {
      "op": "BatchNorm", 
      "name": "stage3_unit1_bn1", 
      "attr": {
        "eps": "2e-05", 
        "fix_gamma": "False", 
        "momentum": "0.9", 
        "use_global_stats": "True"
      }, 
      "inputs": [[193, 0, 0], [194, 0, 0], [195, 0, 0], [196, 0, 1], [197, 0, 1]]
    }, 
    {
      "op": "Activation", 
      "name": "stage3_unit1_relu1", 
      "attr": {"act_type": "relu"}, 
      "inputs": [[198, 0, 0]]
    }, 
    {
      "op": "null", 
      "name": "stage3_unit1_conv1_weight", 
      "attr": {
        "kernel": "(1, 1)", 
        "no_bias": "True", 
        "num_filter": "256", 
        "pad": "(0, 0)", 
        "stride": "(1, 1)", 
        "workspace": "512"
      }, 
      "inputs": []
    }, 
    {
      "op": "Convolution", 
      "name": "stage3_unit1_conv1", 
      "attr": {
        "kernel": "(1, 1)", 
        "no_bias": "True", 
        "num_filter": "256", 
        "pad": "(0, 0)", 
        "stride": "(1, 1)", 
        "workspace": "512"
      }, 
      "inputs": [[199, 0, 0], [200, 0, 0]]
    }, 
    {
      "op": "null", 
      "name": "stage3_unit1_bn2_gamma", 
      "attr": {
        "eps": "2e-05", 
        "fix_gamma": "False", 
        "momentum": "0.9", 
        "use_global_stats": "True"
      }, 
      "inputs": []
    }, 
    {
      "op": "null", 
      "name": "stage3_unit1_bn2_beta", 
      "attr": {
        "eps": "2e-05", 
        "fix_gamma": "False", 
        "momentum": "0.9", 
        "use_global_stats": "True"
      }, 
      "inputs": []
    }, 
    {
      "op": "null", 
      "name": "stage3_unit1_bn2_moving_mean", 
      "attr": {
        "__init__": "[\"zero\", {}]", 
        "eps": "2e-05", 
        "fix_gamma": "False", 
        "momentum": "0.9", 
        "use_global_stats": "True"
      }, 
      "inputs": []
    }, 
    {
      "op": "null", 
      "name": "stage3_unit1_bn2_moving_var", 
      "attr": {
        "__init__": "[\"one\", {}]", 
        "eps": "2e-05", 
        "fix_gamma": "False", 
        "momentum": "0.9", 
        "use_global_stats": "True"
      }, 
      "inputs": []
    }, 
    {
      "op": "BatchNorm", 
      "name": "stage3_unit1_bn2", 
      "attr": {
        "eps": "2e-05", 
        "fix_gamma": "False", 
        "momentum": "0.9", 
        "use_global_stats": "True"
      }, 
      "inputs": [[201, 0, 0], [202, 0, 0], [203, 0, 0], [204, 0, 1], [205, 0, 1]]
    }, 
    {
      "op": "Activation", 
      "name": "stage3_unit1_relu2", 
      "attr": {"act_type": "relu"}, 
      "inputs": [[206, 0, 0]]
    }, 
    {
      "op": "null", 
      "name": "stage3_unit1_conv2_weight", 
      "attr": {
        "kernel": "(3, 3)", 
        "no_bias": "True", 
        "num_filter": "256", 
        "pad": "(1, 1)", 
        "stride": "(2, 2)", 
        "workspace": "512"
      }, 
      "inputs": []
    }, 
    {
      "op": "Convolution", 
      "name": "stage3_unit1_conv2", 
      "attr": {
        "kernel": "(3, 3)", 
        "no_bias": "True", 
        "num_filter": "256", 
        "pad": "(1, 1)", 
        "stride": "(2, 2)", 
        "workspace": "512"
      }, 
      "inputs": [[207, 0, 0], [208, 0, 0]]
    }, 
    {
      "op": "null", 
      "name": "stage3_unit1_bn3_gamma", 
      "attr": {
        "eps": "2e-05", 
        "fix_gamma": "False", 
        "momentum": "0.9", 
        "use_global_stats": "True"
      }, 
      "inputs": []
    }, 
    {
      "op": "null", 
      "name": "stage3_unit1_bn3_beta", 
      "attr": {
        "eps": "2e-05", 
        "fix_gamma": "False", 
        "momentum": "0.9", 
        "use_global_stats": "True"
      }, 
      "inputs": []
    }, 
    {
      "op": "null", 
      "name": "stage3_unit1_bn3_moving_mean", 
      "attr": {
        "__init__": "[\"zero\", {}]", 
        "eps": "2e-05", 
        "fix_gamma": "False", 
        "momentum": "0.9", 
        "use_global_stats": "True"
      }, 
      "inputs": []
    }, 
    {
      "op": "null", 
      "name": "stage3_unit1_bn3_moving_var", 
      "attr": {
        "__init__": "[\"one\", {}]", 
        "eps": "2e-05", 
        "fix_gamma": "False", 
        "momentum": "0.9", 
        "use_global_stats": "True"
      }, 
      "inputs": []
    }, 
    {
      "op": "BatchNorm", 
      "name": "stage3_unit1_bn3", 
      "attr": {
        "eps": "2e-05", 
        "fix_gamma": "False", 
        "momentum": "0.9", 
        "use_global_stats": "True"
      }, 
      "inputs": [[209, 0, 0], [210, 0, 0], [211, 0, 0], [212, 0, 1], [213, 0, 1]]
    }, 
    {
      "op": "Activation", 
      "name": "stage3_unit1_relu3", 
      "attr": {"act_type": "relu"}, 
      "inputs": [[214, 0, 0]]
    }, 
    {
      "op": "null", 
      "name": "stage3_unit1_conv3_weight", 
      "attr": {
        "kernel": "(1, 1)", 
        "no_bias": "True", 
        "num_filter": "1024", 
        "pad": "(0, 0)", 
        "stride": "(1, 1)", 
        "workspace": "512"
      }, 
      "inputs": []
    }, 
    {
      "op": "Convolution", 
      "name": "stage3_unit1_conv3", 
      "attr": {
        "kernel": "(1, 1)", 
        "no_bias": "True", 
        "num_filter": "1024", 
        "pad": "(0, 0)", 
        "stride": "(1, 1)", 
        "workspace": "512"
      }, 
      "inputs": [[215, 0, 0], [216, 0, 0]]
    }, 
    {
      "op": "null", 
      "name": "stage3_unit1_sc_weight", 
      "attr": {
        "kernel": "(1, 1)", 
        "no_bias": "True", 
        "num_filter": "1024", 
        "stride": "(2, 2)", 
        "workspace": "512"
      }, 
      "inputs": []
    }, 
    {
      "op": "Convolution", 
      "name": "stage3_unit1_sc", 
      "attr": {
        "kernel": "(1, 1)", 
        "no_bias": "True", 
        "num_filter": "1024", 
        "stride": "(2, 2)", 
        "workspace": "512"
      }, 
      "inputs": [[199, 0, 0], [218, 0, 0]]
    }, 
    {
      "op": "elemwise_add", 
      "name": "_plus7", 
      "inputs": [[217, 0, 0], [219, 0, 0]]
    }, 
    {
      "op": "null", 
      "name": "stage3_unit2_bn1_gamma", 
      "attr": {
        "eps": "2e-05", 
        "fix_gamma": "False", 
        "momentum": "0.9", 
        "use_global_stats": "True"
      }, 
      "inputs": []
    }, 
    {
      "op": "null", 
      "name": "stage3_unit2_bn1_beta", 
      "attr": {
        "eps": "2e-05", 
        "fix_gamma": "False", 
        "momentum": "0.9", 
        "use_global_stats": "True"
      }, 
      "inputs": []
    }, 
    {
      "op": "null", 
      "name": "stage3_unit2_bn1_moving_mean", 
      "attr": {
        "__init__": "[\"zero\", {}]", 
        "eps": "2e-05", 
        "fix_gamma": "False", 
        "momentum": "0.9", 
        "use_global_stats": "True"
      }, 
      "inputs": []
    }, 
    {
      "op": "null", 
      "name": "stage3_unit2_bn1_moving_var", 
      "attr": {
        "__init__": "[\"one\", {}]", 
        "eps": "2e-05", 
        "fix_gamma": "False", 
        "momentum": "0.9", 
        "use_global_stats": "True"
      }, 
      "inputs": []
    }, 
    {
      "op": "BatchNorm", 
      "name": "stage3_unit2_bn1", 
      "attr": {
        "eps": "2e-05", 
        "fix_gamma": "False", 
        "momentum": "0.9", 
        "use_global_stats": "True"
      }, 
      "inputs": [[220, 0, 0], [221, 0, 0], [222, 0, 0], [223, 0, 1], [224, 0, 1]]
    }, 
    {
      "op": "Activation", 
      "name": "stage3_unit2_relu1", 
      "attr": {"act_type": "relu"}, 
      "inputs": [[225, 0, 0]]
    }, 
    {
      "op": "null", 
      "name": "stage3_unit2_conv1_weight", 
      "attr": {
        "kernel": "(1, 1)", 
        "no_bias": "True", 
        "num_filter": "256", 
        "pad": "(0, 0)", 
        "stride": "(1, 1)", 
        "workspace": "512"
      }, 
      "inputs": []
    }, 
    {
      "op": "Convolution", 
      "name": "stage3_unit2_conv1", 
      "attr": {
        "kernel": "(1, 1)", 
        "no_bias": "True", 
        "num_filter": "256", 
        "pad": "(0, 0)", 
        "stride": "(1, 1)", 
        "workspace": "512"
      }, 
      "inputs": [[226, 0, 0], [227, 0, 0]]
    }, 
    {
      "op": "null", 
      "name": "stage3_unit2_bn2_gamma", 
      "attr": {
        "eps": "2e-05", 
        "fix_gamma": "False", 
        "momentum": "0.9", 
        "use_global_stats": "True"
      }, 
      "inputs": []
    }, 
    {
      "op": "null", 
      "name": "stage3_unit2_bn2_beta", 
      "attr": {
        "eps": "2e-05", 
        "fix_gamma": "False", 
        "momentum": "0.9", 
        "use_global_stats": "True"
      }, 
      "inputs": []
    }, 
    {
      "op": "null", 
      "name": "stage3_unit2_bn2_moving_mean", 
      "attr": {
        "__init__": "[\"zero\", {}]", 
        "eps": "2e-05", 
        "fix_gamma": "False", 
        "momentum": "0.9", 
        "use_global_stats": "True"
      }, 
      "inputs": []
    }, 
    {
      "op": "null", 
      "name": "stage3_unit2_bn2_moving_var", 
      "attr": {
        "__init__": "[\"one\", {}]", 
        "eps": "2e-05", 
        "fix_gamma": "False", 
        "momentum": "0.9", 
        "use_global_stats": "True"
      }, 
      "inputs": []
    }, 
    {
      "op": "BatchNorm", 
      "name": "stage3_unit2_bn2", 
      "attr": {
        "eps": "2e-05", 
        "fix_gamma": "False", 
        "momentum": "0.9", 
        "use_global_stats": "True"
      }, 
      "inputs": [[228, 0, 0], [229, 0, 0], [230, 0, 0], [231, 0, 1], [232, 0, 1]]
    }, 
    {
      "op": "Activation", 
      "name": "stage3_unit2_relu2", 
      "attr": {"act_type": "relu"}, 
      "inputs": [[233, 0, 0]]
    }, 
    {
      "op": "null", 
      "name": "stage3_unit2_conv2_weight", 
      "attr": {
        "kernel": "(3, 3)", 
        "no_bias": "True", 
        "num_filter": "256", 
        "pad": "(1, 1)", 
        "stride": "(1, 1)", 
        "workspace": "512"
      }, 
      "inputs": []
    }, 
    {
      "op": "Convolution", 
      "name": "stage3_unit2_conv2", 
      "attr": {
        "kernel": "(3, 3)", 
        "no_bias": "True", 
        "num_filter": "256", 
        "pad": "(1, 1)", 
        "stride": "(1, 1)", 
        "workspace": "512"
      }, 
      "inputs": [[234, 0, 0], [235, 0, 0]]
    }, 
    {
      "op": "null", 
      "name": "stage3_unit2_bn3_gamma", 
      "attr": {
        "eps": "2e-05", 
        "fix_gamma": "False", 
        "momentum": "0.9", 
        "use_global_stats": "True"
      }, 
      "inputs": []
    }, 
    {
      "op": "null", 
      "name": "stage3_unit2_bn3_beta", 
      "attr": {
        "eps": "2e-05", 
        "fix_gamma": "False", 
        "momentum": "0.9", 
        "use_global_stats": "True"
      }, 
      "inputs": []
    }, 
    {
      "op": "null", 
      "name": "stage3_unit2_bn3_moving_mean", 
      "attr": {
        "__init__": "[\"zero\", {}]", 
        "eps": "2e-05", 
        "fix_gamma": "False", 
        "momentum": "0.9", 
        "use_global_stats": "True"
      }, 
      "inputs": []
    }, 
    {
      "op": "null", 
      "name": "stage3_unit2_bn3_moving_var", 
      "attr": {
        "__init__": "[\"one\", {}]", 
        "eps": "2e-05", 
        "fix_gamma": "False", 
        "momentum": "0.9", 
        "use_global_stats": "True"
      }, 
      "inputs": []
    }, 
    {
      "op": "BatchNorm", 
      "name": "stage3_unit2_bn3", 
      "attr": {
        "eps": "2e-05", 
        "fix_gamma": "False", 
        "momentum": "0.9", 
        "use_global_stats": "True"
      }, 
      "inputs": [[236, 0, 0], [237, 0, 0], [238, 0, 0], [239, 0, 1], [240, 0, 1]]
    }, 
    {
      "op": "Activation", 
      "name": "stage3_unit2_relu3", 
      "attr": {"act_type": "relu"}, 
      "inputs": [[241, 0, 0]]
    }, 
    {
      "op": "null", 
      "name": "stage3_unit2_conv3_weight", 
      "attr": {
        "kernel": "(1, 1)", 
        "no_bias": "True", 
        "num_filter": "1024", 
        "pad": "(0, 0)", 
        "stride": "(1, 1)", 
        "workspace": "512"
      }, 
      "inputs": []
    }, 
    {
      "op": "Convolution", 
      "name": "stage3_unit2_conv3", 
      "attr": {
        "kernel": "(1, 1)", 
        "no_bias": "True", 
        "num_filter": "1024", 
        "pad": "(0, 0)", 
        "stride": "(1, 1)", 
        "workspace": "512"
      }, 
      "inputs": [[242, 0, 0], [243, 0, 0]]
    }, 
    {
      "op": "elemwise_add", 
      "name": "_plus8", 
      "inputs": [[244, 0, 0], [220, 0, 0]]
    }, 
    {
      "op": "null", 
      "name": "stage3_unit3_bn1_gamma", 
      "attr": {
        "eps": "2e-05", 
        "fix_gamma": "False", 
        "momentum": "0.9", 
        "use_global_stats": "True"
      }, 
      "inputs": []
    }, 
    {
      "op": "null", 
      "name": "stage3_unit3_bn1_beta", 
      "attr": {
        "eps": "2e-05", 
        "fix_gamma": "False", 
        "momentum": "0.9", 
        "use_global_stats": "True"
      }, 
      "inputs": []
    }, 
    {
      "op": "null", 
      "name": "stage3_unit3_bn1_moving_mean", 
      "attr": {
        "__init__": "[\"zero\", {}]", 
        "eps": "2e-05", 
        "fix_gamma": "False", 
        "momentum": "0.9", 
        "use_global_stats": "True"
      }, 
      "inputs": []
    }, 
    {
      "op": "null", 
      "name": "stage3_unit3_bn1_moving_var", 
      "attr": {
        "__init__": "[\"one\", {}]", 
        "eps": "2e-05", 
        "fix_gamma": "False", 
        "momentum": "0.9", 
        "use_global_stats": "True"
      }, 
      "inputs": []
    }, 
    {
      "op": "BatchNorm", 
      "name": "stage3_unit3_bn1", 
      "attr": {
        "eps": "2e-05", 
        "fix_gamma": "False", 
        "momentum": "0.9", 
        "use_global_stats": "True"
      }, 
      "inputs": [[245, 0, 0], [246, 0, 0], [247, 0, 0], [248, 0, 1], [249, 0, 1]]
    }, 
    {
      "op": "Activation", 
      "name": "stage3_unit3_relu1", 
      "attr": {"act_type": "relu"}, 
      "inputs": [[250, 0, 0]]
    }, 
    {
      "op": "null", 
      "name": "stage3_unit3_conv1_weight", 
      "attr": {
        "kernel": "(1, 1)", 
        "no_bias": "True", 
        "num_filter": "256", 
        "pad": "(0, 0)", 
        "stride": "(1, 1)", 
        "workspace": "512"
      }, 
      "inputs": []
    }, 
    {
      "op": "Convolution", 
      "name": "stage3_unit3_conv1", 
      "attr": {
        "kernel": "(1, 1)", 
        "no_bias": "True", 
        "num_filter": "256", 
        "pad": "(0, 0)", 
        "stride": "(1, 1)", 
        "workspace": "512"
      }, 
      "inputs": [[251, 0, 0], [252, 0, 0]]
    }, 
    {
      "op": "null", 
      "name": "stage3_unit3_bn2_gamma", 
      "attr": {
        "eps": "2e-05", 
        "fix_gamma": "False", 
        "momentum": "0.9", 
        "use_global_stats": "True"
      }, 
      "inputs": []
    }, 
    {
      "op": "null", 
      "name": "stage3_unit3_bn2_beta", 
      "attr": {
        "eps": "2e-05", 
        "fix_gamma": "False", 
        "momentum": "0.9", 
        "use_global_stats": "True"
      }, 
      "inputs": []
    }, 
    {
      "op": "null", 
      "name": "stage3_unit3_bn2_moving_mean", 
      "attr": {
        "__init__": "[\"zero\", {}]", 
        "eps": "2e-05", 
        "fix_gamma": "False", 
        "momentum": "0.9", 
        "use_global_stats": "True"
      }, 
      "inputs": []
    }, 
    {
      "op": "null", 
      "name": "stage3_unit3_bn2_moving_var", 
      "attr": {
        "__init__": "[\"one\", {}]", 
        "eps": "2e-05", 
        "fix_gamma": "False", 
        "momentum": "0.9", 
        "use_global_stats": "True"
      }, 
      "inputs": []
    }, 
    {
      "op": "BatchNorm", 
      "name": "stage3_unit3_bn2", 
      "attr": {
        "eps": "2e-05", 
        "fix_gamma": "False", 
        "momentum": "0.9", 
        "use_global_stats": "True"
      }, 
      "inputs": [[253, 0, 0], [254, 0, 0], [255, 0, 0], [256, 0, 1], [257, 0, 1]]
    }, 
    {
      "op": "Activation", 
      "name": "stage3_unit3_relu2", 
      "attr": {"act_type": "relu"}, 
      "inputs": [[258, 0, 0]]
    }, 
    {
      "op": "null", 
      "name": "stage3_unit3_conv2_weight", 
      "attr": {
        "kernel": "(3, 3)", 
        "no_bias": "True", 
        "num_filter": "256", 
        "pad": "(1, 1)", 
        "stride": "(1, 1)", 
        "workspace": "512"
      }, 
      "inputs": []
    }, 
    {
      "op": "Convolution", 
      "name": "stage3_unit3_conv2", 
      "attr": {
        "kernel": "(3, 3)", 
        "no_bias": "True", 
        "num_filter": "256", 
        "pad": "(1, 1)", 
        "stride": "(1, 1)", 
        "workspace": "512"
      }, 
      "inputs": [[259, 0, 0], [260, 0, 0]]
    }, 
    {
      "op": "null", 
      "name": "stage3_unit3_bn3_gamma", 
      "attr": {
        "eps": "2e-05", 
        "fix_gamma": "False", 
        "momentum": "0.9", 
        "use_global_stats": "True"
      }, 
      "inputs": []
    }, 
    {
      "op": "null", 
      "name": "stage3_unit3_bn3_beta", 
      "attr": {
        "eps": "2e-05", 
        "fix_gamma": "False", 
        "momentum": "0.9", 
        "use_global_stats": "True"
      }, 
      "inputs": []
    }, 
    {
      "op": "null", 
      "name": "stage3_unit3_bn3_moving_mean", 
      "attr": {
        "__init__": "[\"zero\", {}]", 
        "eps": "2e-05", 
        "fix_gamma": "False", 
        "momentum": "0.9", 
        "use_global_stats": "True"
      }, 
      "inputs": []
    }, 
    {
      "op": "null", 
      "name": "stage3_unit3_bn3_moving_var", 
      "attr": {
        "__init__": "[\"one\", {}]", 
        "eps": "2e-05", 
        "fix_gamma": "False", 
        "momentum": "0.9", 
        "use_global_stats": "True"
      }, 
      "inputs": []
    }, 
    {
      "op": "BatchNorm", 
      "name": "stage3_unit3_bn3", 
      "attr": {
        "eps": "2e-05", 
        "fix_gamma": "False", 
        "momentum": "0.9", 
        "use_global_stats": "True"
      }, 
      "inputs": [[261, 0, 0], [262, 0, 0], [263, 0, 0], [264, 0, 1], [265, 0, 1]]
    }, 
    {
      "op": "Activation", 
      "name": "stage3_unit3_relu3", 
      "attr": {"act_type": "relu"}, 
      "inputs": [[266, 0, 0]]
    }, 
    {
      "op": "null", 
      "name": "stage3_unit3_conv3_weight", 
      "attr": {
        "kernel": "(1, 1)", 
        "no_bias": "True", 
        "num_filter": "1024", 
        "pad": "(0, 0)", 
        "stride": "(1, 1)", 
        "workspace": "512"
      }, 
      "inputs": []
    }, 
    {
      "op": "Convolution", 
      "name": "stage3_unit3_conv3", 
      "attr": {
        "kernel": "(1, 1)", 
        "no_bias": "True", 
        "num_filter": "1024", 
        "pad": "(0, 0)", 
        "stride": "(1, 1)", 
        "workspace": "512"
      }, 
      "inputs": [[267, 0, 0], [268, 0, 0]]
    }, 
    {
      "op": "elemwise_add", 
      "name": "_plus9", 
      "inputs": [[269, 0, 0], [245, 0, 0]]
    }, 
    {
      "op": "null", 
      "name": "stage3_unit4_bn1_gamma", 
      "attr": {
        "eps": "2e-05", 
        "fix_gamma": "False", 
        "momentum": "0.9", 
        "use_global_stats": "True"
      }, 
      "inputs": []
    }, 
    {
      "op": "null", 
      "name": "stage3_unit4_bn1_beta", 
      "attr": {
        "eps": "2e-05", 
        "fix_gamma": "False", 
        "momentum": "0.9", 
        "use_global_stats": "True"
      }, 
      "inputs": []
    }, 
    {
      "op": "null", 
      "name": "stage3_unit4_bn1_moving_mean", 
      "attr": {
        "__init__": "[\"zero\", {}]", 
        "eps": "2e-05", 
        "fix_gamma": "False", 
        "momentum": "0.9", 
        "use_global_stats": "True"
      }, 
      "inputs": []
    }, 
    {
      "op": "null", 
      "name": "stage3_unit4_bn1_moving_var", 
      "attr": {
        "__init__": "[\"one\", {}]", 
        "eps": "2e-05", 
        "fix_gamma": "False", 
        "momentum": "0.9", 
        "use_global_stats": "True"
      }, 
      "inputs": []
    }, 
    {
      "op": "BatchNorm", 
      "name": "stage3_unit4_bn1", 
      "attr": {
        "eps": "2e-05", 
        "fix_gamma": "False", 
        "momentum": "0.9", 
        "use_global_stats": "True"
      }, 
      "inputs": [[270, 0, 0], [271, 0, 0], [272, 0, 0], [273, 0, 1], [274, 0, 1]]
    }, 
    {
      "op": "Activation", 
      "name": "stage3_unit4_relu1", 
      "attr": {"act_type": "relu"}, 
      "inputs": [[275, 0, 0]]
    }, 
    {
      "op": "null", 
      "name": "stage3_unit4_conv1_weight", 
      "attr": {
        "kernel": "(1, 1)", 
        "no_bias": "True", 
        "num_filter": "256", 
        "pad": "(0, 0)", 
        "stride": "(1, 1)", 
        "workspace": "512"
      }, 
      "inputs": []
    }, 
    {
      "op": "Convolution", 
      "name": "stage3_unit4_conv1", 
      "attr": {
        "kernel": "(1, 1)", 
        "no_bias": "True", 
        "num_filter": "256", 
        "pad": "(0, 0)", 
        "stride": "(1, 1)", 
        "workspace": "512"
      }, 
      "inputs": [[276, 0, 0], [277, 0, 0]]
    }, 
    {
      "op": "null", 
      "name": "stage3_unit4_bn2_gamma", 
      "attr": {
        "eps": "2e-05", 
        "fix_gamma": "False", 
        "momentum": "0.9", 
        "use_global_stats": "True"
      }, 
      "inputs": []
    }, 
    {
      "op": "null", 
      "name": "stage3_unit4_bn2_beta", 
      "attr": {
        "eps": "2e-05", 
        "fix_gamma": "False", 
        "momentum": "0.9", 
        "use_global_stats": "True"
      }, 
      "inputs": []
    }, 
    {
      "op": "null", 
      "name": "stage3_unit4_bn2_moving_mean", 
      "attr": {
        "__init__": "[\"zero\", {}]", 
        "eps": "2e-05", 
        "fix_gamma": "False", 
        "momentum": "0.9", 
        "use_global_stats": "True"
      }, 
      "inputs": []
    }, 
    {
      "op": "null", 
      "name": "stage3_unit4_bn2_moving_var", 
      "attr": {
        "__init__": "[\"one\", {}]", 
        "eps": "2e-05", 
        "fix_gamma": "False", 
        "momentum": "0.9", 
        "use_global_stats": "True"
      }, 
      "inputs": []
    }, 
    {
      "op": "BatchNorm", 
      "name": "stage3_unit4_bn2", 
      "attr": {
        "eps": "2e-05", 
        "fix_gamma": "False", 
        "momentum": "0.9", 
        "use_global_stats": "True"
      }, 
      "inputs": [[278, 0, 0], [279, 0, 0], [280, 0, 0], [281, 0, 1], [282, 0, 1]]
    }, 
    {
      "op": "Activation", 
      "name": "stage3_unit4_relu2", 
      "attr": {"act_type": "relu"}, 
      "inputs": [[283, 0, 0]]
    }, 
    {
      "op": "null", 
      "name": "stage3_unit4_conv2_weight", 
      "attr": {
        "kernel": "(3, 3)", 
        "no_bias": "True", 
        "num_filter": "256", 
        "pad": "(1, 1)", 
        "stride": "(1, 1)", 
        "workspace": "512"
      }, 
      "inputs": []
    }, 
    {
      "op": "Convolution", 
      "name": "stage3_unit4_conv2", 
      "attr": {
        "kernel": "(3, 3)", 
        "no_bias": "True", 
        "num_filter": "256", 
        "pad": "(1, 1)", 
        "stride": "(1, 1)", 
        "workspace": "512"
      }, 
      "inputs": [[284, 0, 0], [285, 0, 0]]
    }, 
    {
      "op": "null", 
      "name": "stage3_unit4_bn3_gamma", 
      "attr": {
        "eps": "2e-05", 
        "fix_gamma": "False", 
        "momentum": "0.9", 
        "use_global_stats": "True"
      }, 
      "inputs": []
    }, 
    {
      "op": "null", 
      "name": "stage3_unit4_bn3_beta", 
      "attr": {
        "eps": "2e-05", 
        "fix_gamma": "False", 
        "momentum": "0.9", 
        "use_global_stats": "True"
      }, 
      "inputs": []
    }, 
    {
      "op": "null", 
      "name": "stage3_unit4_bn3_moving_mean", 
      "attr": {
        "__init__": "[\"zero\", {}]", 
        "eps": "2e-05", 
        "fix_gamma": "False", 
        "momentum": "0.9", 
        "use_global_stats": "True"
      }, 
      "inputs": []
    }, 
    {
      "op": "null", 
      "name": "stage3_unit4_bn3_moving_var", 
      "attr": {
        "__init__": "[\"one\", {}]", 
        "eps": "2e-05", 
        "fix_gamma": "False", 
        "momentum": "0.9", 
        "use_global_stats": "True"
      }, 
      "inputs": []
    }, 
    {
      "op": "BatchNorm", 
      "name": "stage3_unit4_bn3", 
      "attr": {
        "eps": "2e-05", 
        "fix_gamma": "False", 
        "momentum": "0.9", 
        "use_global_stats": "True"
      }, 
      "inputs": [[286, 0, 0], [287, 0, 0], [288, 0, 0], [289, 0, 1], [290, 0, 1]]
    }, 
    {
      "op": "Activation", 
      "name": "stage3_unit4_relu3", 
      "attr": {"act_type": "relu"}, 
      "inputs": [[291, 0, 0]]
    }, 
    {
      "op": "null", 
      "name": "stage3_unit4_conv3_weight", 
      "attr": {
        "kernel": "(1, 1)", 
        "no_bias": "True", 
        "num_filter": "1024", 
        "pad": "(0, 0)", 
        "stride": "(1, 1)", 
        "workspace": "512"
      }, 
      "inputs": []
    }, 
    {
      "op": "Convolution", 
      "name": "stage3_unit4_conv3", 
      "attr": {
        "kernel": "(1, 1)", 
        "no_bias": "True", 
        "num_filter": "1024", 
        "pad": "(0, 0)", 
        "stride": "(1, 1)", 
        "workspace": "512"
      }, 
      "inputs": [[292, 0, 0], [293, 0, 0]]
    }, 
    {
      "op": "elemwise_add", 
      "name": "_plus10", 
      "inputs": [[294, 0, 0], [270, 0, 0]]
    }, 
    {
      "op": "null", 
      "name": "stage3_unit5_bn1_gamma", 
      "attr": {
        "eps": "2e-05", 
        "fix_gamma": "False", 
        "momentum": "0.9", 
        "use_global_stats": "True"
      }, 
      "inputs": []
    }, 
    {
      "op": "null", 
      "name": "stage3_unit5_bn1_beta", 
      "attr": {
        "eps": "2e-05", 
        "fix_gamma": "False", 
        "momentum": "0.9", 
        "use_global_stats": "True"
      }, 
      "inputs": []
    }, 
    {
      "op": "null", 
      "name": "stage3_unit5_bn1_moving_mean", 
      "attr": {
        "__init__": "[\"zero\", {}]", 
        "eps": "2e-05", 
        "fix_gamma": "False", 
        "momentum": "0.9", 
        "use_global_stats": "True"
      }, 
      "inputs": []
    }, 
    {
      "op": "null", 
      "name": "stage3_unit5_bn1_moving_var", 
      "attr": {
        "__init__": "[\"one\", {}]", 
        "eps": "2e-05", 
        "fix_gamma": "False", 
        "momentum": "0.9", 
        "use_global_stats": "True"
      }, 
      "inputs": []
    }, 
    {
      "op": "BatchNorm", 
      "name": "stage3_unit5_bn1", 
      "attr": {
        "eps": "2e-05", 
        "fix_gamma": "False", 
        "momentum": "0.9", 
        "use_global_stats": "True"
      }, 
      "inputs": [[295, 0, 0], [296, 0, 0], [297, 0, 0], [298, 0, 1], [299, 0, 1]]
    }, 
    {
      "op": "Activation", 
      "name": "stage3_unit5_relu1", 
      "attr": {"act_type": "relu"}, 
      "inputs": [[300, 0, 0]]
    }, 
    {
      "op": "null", 
      "name": "stage3_unit5_conv1_weight", 
      "attr": {
        "kernel": "(1, 1)", 
        "no_bias": "True", 
        "num_filter": "256", 
        "pad": "(0, 0)", 
        "stride": "(1, 1)", 
        "workspace": "512"
      }, 
      "inputs": []
    }, 
    {
      "op": "Convolution", 
      "name": "stage3_unit5_conv1", 
      "attr": {
        "kernel": "(1, 1)", 
        "no_bias": "True", 
        "num_filter": "256", 
        "pad": "(0, 0)", 
        "stride": "(1, 1)", 
        "workspace": "512"
      }, 
      "inputs": [[301, 0, 0], [302, 0, 0]]
    }, 
    {
      "op": "null", 
      "name": "stage3_unit5_bn2_gamma", 
      "attr": {
        "eps": "2e-05", 
        "fix_gamma": "False", 
        "momentum": "0.9", 
        "use_global_stats": "True"
      }, 
      "inputs": []
    }, 
    {
      "op": "null", 
      "name": "stage3_unit5_bn2_beta", 
      "attr": {
        "eps": "2e-05", 
        "fix_gamma": "False", 
        "momentum": "0.9", 
        "use_global_stats": "True"
      }, 
      "inputs": []
    }, 
    {
      "op": "null", 
      "name": "stage3_unit5_bn2_moving_mean", 
      "attr": {
        "__init__": "[\"zero\", {}]", 
        "eps": "2e-05", 
        "fix_gamma": "False", 
        "momentum": "0.9", 
        "use_global_stats": "True"
      }, 
      "inputs": []
    }, 
    {
      "op": "null", 
      "name": "stage3_unit5_bn2_moving_var", 
      "attr": {
        "__init__": "[\"one\", {}]", 
        "eps": "2e-05", 
        "fix_gamma": "False", 
        "momentum": "0.9", 
        "use_global_stats": "True"
      }, 
      "inputs": []
    }, 
    {
      "op": "BatchNorm", 
      "name": "stage3_unit5_bn2", 
      "attr": {
        "eps": "2e-05", 
        "fix_gamma": "False", 
        "momentum": "0.9", 
        "use_global_stats": "True"
      }, 
      "inputs": [[303, 0, 0], [304, 0, 0], [305, 0, 0], [306, 0, 1], [307, 0, 1]]
    }, 
    {
      "op": "Activation", 
      "name": "stage3_unit5_relu2", 
      "attr": {"act_type": "relu"}, 
      "inputs": [[308, 0, 0]]
    }, 
    {
      "op": "null", 
      "name": "stage3_unit5_conv2_weight", 
      "attr": {
        "kernel": "(3, 3)", 
        "no_bias": "True", 
        "num_filter": "256", 
        "pad": "(1, 1)", 
        "stride": "(1, 1)", 
        "workspace": "512"
      }, 
      "inputs": []
    }, 
    {
      "op": "Convolution", 
      "name": "stage3_unit5_conv2", 
      "attr": {
        "kernel": "(3, 3)", 
        "no_bias": "True", 
        "num_filter": "256", 
        "pad": "(1, 1)", 
        "stride": "(1, 1)", 
        "workspace": "512"
      }, 
      "inputs": [[309, 0, 0], [310, 0, 0]]
    }, 
    {
      "op": "null", 
      "name": "stage3_unit5_bn3_gamma", 
      "attr": {
        "eps": "2e-05", 
        "fix_gamma": "False", 
        "momentum": "0.9", 
        "use_global_stats": "True"
      }, 
      "inputs": []
    }, 
    {
      "op": "null", 
      "name": "stage3_unit5_bn3_beta", 
      "attr": {
        "eps": "2e-05", 
        "fix_gamma": "False", 
        "momentum": "0.9", 
        "use_global_stats": "True"
      }, 
      "inputs": []
    }, 
    {
      "op": "null", 
      "name": "stage3_unit5_bn3_moving_mean", 
      "attr": {
        "__init__": "[\"zero\", {}]", 
        "eps": "2e-05", 
        "fix_gamma": "False", 
        "momentum": "0.9", 
        "use_global_stats": "True"
      }, 
      "inputs": []
    }, 
    {
      "op": "null", 
      "name": "stage3_unit5_bn3_moving_var", 
      "attr": {
        "__init__": "[\"one\", {}]", 
        "eps": "2e-05", 
        "fix_gamma": "False", 
        "momentum": "0.9", 
        "use_global_stats": "True"
      }, 
      "inputs": []
    }, 
    {
      "op": "BatchNorm", 
      "name": "stage3_unit5_bn3", 
      "attr": {
        "eps": "2e-05", 
        "fix_gamma": "False", 
        "momentum": "0.9", 
        "use_global_stats": "True"
      }, 
      "inputs": [[311, 0, 0], [312, 0, 0], [313, 0, 0], [314, 0, 1], [315, 0, 1]]
    }, 
    {
      "op": "Activation", 
      "name": "stage3_unit5_relu3", 
      "attr": {"act_type": "relu"}, 
      "inputs": [[316, 0, 0]]
    }, 
    {
      "op": "null", 
      "name": "stage3_unit5_conv3_weight", 
      "attr": {
        "kernel": "(1, 1)", 
        "no_bias": "True", 
        "num_filter": "1024", 
        "pad": "(0, 0)", 
        "stride": "(1, 1)", 
        "workspace": "512"
      }, 
      "inputs": []
    }, 
    {
      "op": "Convolution", 
      "name": "stage3_unit5_conv3", 
      "attr": {
        "kernel": "(1, 1)", 
        "no_bias": "True", 
        "num_filter": "1024", 
        "pad": "(0, 0)", 
        "stride": "(1, 1)", 
        "workspace": "512"
      }, 
      "inputs": [[317, 0, 0], [318, 0, 0]]
    }, 
    {
      "op": "elemwise_add", 
      "name": "_plus11", 
      "inputs": [[319, 0, 0], [295, 0, 0]]
    }, 
    {
      "op": "null", 
      "name": "stage3_unit6_bn1_gamma", 
      "attr": {
        "eps": "2e-05", 
        "fix_gamma": "False", 
        "momentum": "0.9", 
        "use_global_stats": "True"
      }, 
      "inputs": []
    }, 
    {
      "op": "null", 
      "name": "stage3_unit6_bn1_beta", 
      "attr": {
        "eps": "2e-05", 
        "fix_gamma": "False", 
        "momentum": "0.9", 
        "use_global_stats": "True"
      }, 
      "inputs": []
    }, 
    {
      "op": "null", 
      "name": "stage3_unit6_bn1_moving_mean", 
      "attr": {
        "__init__": "[\"zero\", {}]", 
        "eps": "2e-05", 
        "fix_gamma": "False", 
        "momentum": "0.9", 
        "use_global_stats": "True"
      }, 
      "inputs": []
    }, 
    {
      "op": "null", 
      "name": "stage3_unit6_bn1_moving_var", 
      "attr": {
        "__init__": "[\"one\", {}]", 
        "eps": "2e-05", 
        "fix_gamma": "False", 
        "momentum": "0.9", 
        "use_global_stats": "True"
      }, 
      "inputs": []
    }, 
    {
      "op": "BatchNorm", 
      "name": "stage3_unit6_bn1", 
      "attr": {
        "eps": "2e-05", 
        "fix_gamma": "False", 
        "momentum": "0.9", 
        "use_global_stats": "True"
      }, 
      "inputs": [[320, 0, 0], [321, 0, 0], [322, 0, 0], [323, 0, 1], [324, 0, 1]]
    }, 
    {
      "op": "Activation", 
      "name": "stage3_unit6_relu1", 
      "attr": {"act_type": "relu"}, 
      "inputs": [[325, 0, 0]]
    }, 
    {
      "op": "null", 
      "name": "stage3_unit6_conv1_weight", 
      "attr": {
        "kernel": "(1, 1)", 
        "no_bias": "True", 
        "num_filter": "256", 
        "pad": "(0, 0)", 
        "stride": "(1, 1)", 
        "workspace": "512"
      }, 
      "inputs": []
    }, 
    {
      "op": "Convolution", 
      "name": "stage3_unit6_conv1", 
      "attr": {
        "kernel": "(1, 1)", 
        "no_bias": "True", 
        "num_filter": "256", 
        "pad": "(0, 0)", 
        "stride": "(1, 1)", 
        "workspace": "512"
      }, 
      "inputs": [[326, 0, 0], [327, 0, 0]]
    }, 
    {
      "op": "null", 
      "name": "stage3_unit6_bn2_gamma", 
      "attr": {
        "eps": "2e-05", 
        "fix_gamma": "False", 
        "momentum": "0.9", 
        "use_global_stats": "True"
      }, 
      "inputs": []
    }, 
    {
      "op": "null", 
      "name": "stage3_unit6_bn2_beta", 
      "attr": {
        "eps": "2e-05", 
        "fix_gamma": "False", 
        "momentum": "0.9", 
        "use_global_stats": "True"
      }, 
      "inputs": []
    }, 
    {
      "op": "null", 
      "name": "stage3_unit6_bn2_moving_mean", 
      "attr": {
        "__init__": "[\"zero\", {}]", 
        "eps": "2e-05", 
        "fix_gamma": "False", 
        "momentum": "0.9", 
        "use_global_stats": "True"
      }, 
      "inputs": []
    }, 
    {
      "op": "null", 
      "name": "stage3_unit6_bn2_moving_var", 
      "attr": {
        "__init__": "[\"one\", {}]", 
        "eps": "2e-05", 
        "fix_gamma": "False", 
        "momentum": "0.9", 
        "use_global_stats": "True"
      }, 
      "inputs": []
    }, 
    {
      "op": "BatchNorm", 
      "name": "stage3_unit6_bn2", 
      "attr": {
        "eps": "2e-05", 
        "fix_gamma": "False", 
        "momentum": "0.9", 
        "use_global_stats": "True"
      }, 
      "inputs": [[328, 0, 0], [329, 0, 0], [330, 0, 0], [331, 0, 1], [332, 0, 1]]
    }, 
    {
      "op": "Activation", 
      "name": "stage3_unit6_relu2", 
      "attr": {"act_type": "relu"}, 
      "inputs": [[333, 0, 0]]
    }, 
    {
      "op": "null", 
      "name": "stage3_unit6_conv2_weight", 
      "attr": {
        "kernel": "(3, 3)", 
        "no_bias": "True", 
        "num_filter": "256", 
        "pad": "(1, 1)", 
        "stride": "(1, 1)", 
        "workspace": "512"
      }, 
      "inputs": []
    }, 
    {
      "op": "Convolution", 
      "name": "stage3_unit6_conv2", 
      "attr": {
        "kernel": "(3, 3)", 
        "no_bias": "True", 
        "num_filter": "256", 
        "pad": "(1, 1)", 
        "stride": "(1, 1)", 
        "workspace": "512"
      }, 
      "inputs": [[334, 0, 0], [335, 0, 0]]
    }, 
    {
      "op": "null", 
      "name": "stage3_unit6_bn3_gamma", 
      "attr": {
        "eps": "2e-05", 
        "fix_gamma": "False", 
        "momentum": "0.9", 
        "use_global_stats": "True"
      }, 
      "inputs": []
    }, 
    {
      "op": "null", 
      "name": "stage3_unit6_bn3_beta", 
      "attr": {
        "eps": "2e-05", 
        "fix_gamma": "False", 
        "momentum": "0.9", 
        "use_global_stats": "True"
      }, 
      "inputs": []
    }, 
    {
      "op": "null", 
      "name": "stage3_unit6_bn3_moving_mean", 
      "attr": {
        "__init__": "[\"zero\", {}]", 
        "eps": "2e-05", 
        "fix_gamma": "False", 
        "momentum": "0.9", 
        "use_global_stats": "True"
      }, 
      "inputs": []
    }, 
    {
      "op": "null", 
      "name": "stage3_unit6_bn3_moving_var", 
      "attr": {
        "__init__": "[\"one\", {}]", 
        "eps": "2e-05", 
        "fix_gamma": "False", 
        "momentum": "0.9", 
        "use_global_stats": "True"
      }, 
      "inputs": []
    }, 
    {
      "op": "BatchNorm", 
      "name": "stage3_unit6_bn3", 
      "attr": {
        "eps": "2e-05", 
        "fix_gamma": "False", 
        "momentum": "0.9", 
        "use_global_stats": "True"
      }, 
      "inputs": [[336, 0, 0], [337, 0, 0], [338, 0, 0], [339, 0, 1], [340, 0, 1]]
    }, 
    {
      "op": "Activation", 
      "name": "stage3_unit6_relu3", 
      "attr": {"act_type": "relu"}, 
      "inputs": [[341, 0, 0]]
    }, 
    {
      "op": "null", 
      "name": "stage3_unit6_conv3_weight", 
      "attr": {
        "kernel": "(1, 1)", 
        "no_bias": "True", 
        "num_filter": "1024", 
        "pad": "(0, 0)", 
        "stride": "(1, 1)", 
        "workspace": "512"
      }, 
      "inputs": []
    }, 
    {
      "op": "Convolution", 
      "name": "stage3_unit6_conv3", 
      "attr": {
        "kernel": "(1, 1)", 
        "no_bias": "True", 
        "num_filter": "1024", 
        "pad": "(0, 0)", 
        "stride": "(1, 1)", 
        "workspace": "512"
      }, 
      "inputs": [[342, 0, 0], [343, 0, 0]]
    }, 
    {
      "op": "elemwise_add", 
      "name": "_plus12", 
      "inputs": [[344, 0, 0], [320, 0, 0]]
    }, 
    {
      "op": "null", 
      "name": "rpn_conv_3x3_weight", 
      "attr": {
        "kernel": "(3, 3)", 
        "num_filter": "512", 
        "pad": "(1, 1)"
      }, 
      "inputs": []
    }, 
    {
      "op": "null", 
      "name": "rpn_conv_3x3_bias", 
      "attr": {
        "kernel": "(3, 3)", 
        "num_filter": "512", 
        "pad": "(1, 1)"
      }, 
      "inputs": []
    }, 
    {
      "op": "Convolution", 
      "name": "rpn_conv_3x3", 
      "attr": {
        "kernel": "(3, 3)", 
        "num_filter": "512", 
        "pad": "(1, 1)"
      }, 
      "inputs": [[345, 0, 0], [346, 0, 0], [347, 0, 0]]
    }, 
    {
      "op": "Activation", 
      "name": "rpn_relu", 
      "attr": {"act_type": "relu"}, 
      "inputs": [[348, 0, 0]]
    }, 
    {
      "op": "null", 
      "name": "rpn_cls_score_weight", 
      "attr": {
        "kernel": "(1, 1)", 
        "num_filter": "24", 
        "pad": "(0, 0)"
      }, 
      "inputs": []
    }, 
    {
      "op": "null", 
      "name": "rpn_cls_score_bias", 
      "attr": {
        "kernel": "(1, 1)", 
        "num_filter": "24", 
        "pad": "(0, 0)"
      }, 
      "inputs": []
    }, 
    {
      "op": "Convolution", 
      "name": "rpn_cls_score", 
      "attr": {
        "kernel": "(1, 1)", 
        "num_filter": "24", 
        "pad": "(0, 0)"
      }, 
      "inputs": [[349, 0, 0], [350, 0, 0], [351, 0, 0]]
    }, 
    {
      "op": "Reshape", 
      "name": "rpn_cls_score_reshape", 
      "attr": {"shape": "(0, 2, -1, 0)"}, 
      "inputs": [[352, 0, 0]]
    }, 
    {
      "op": "SoftmaxActivation", 
      "name": "rpn_cls_prob", 
      "attr": {"mode": "channel"}, 
      "inputs": [[353, 0, 0]]
    }, 
    {
      "op": "Reshape", 
      "name": "rpn_cls_prob_reshape", 
      "attr": {"shape": "(0, 24, -1, 0)"}, 
      "inputs": [[354, 0, 0]]
    }, 
    {
      "op": "null", 
      "name": "rpn_bbox_pred_weight", 
      "attr": {
        "kernel": "(1, 1)", 
        "num_filter": "48", 
        "pad": "(0, 0)"
      }, 
      "inputs": []
    }, 
    {
      "op": "null", 
      "name": "rpn_bbox_pred_bias", 
      "attr": {
        "kernel": "(1, 1)", 
        "num_filter": "48", 
        "pad": "(0, 0)"
      }, 
      "inputs": []
    }, 
    {
      "op": "Convolution", 
      "name": "rpn_bbox_pred", 
      "attr": {
        "kernel": "(1, 1)", 
        "num_filter": "48", 
        "pad": "(0, 0)"
      }, 
      "inputs": [[349, 0, 0], [356, 0, 0], [357, 0, 0]]
    }, 
    {
      "op": "null", 
      "name": "im_info", 
      "inputs": []
    }, 
    {
      "op": "Custom", 
      "name": "rpn_rois", 
      "attr": {
        "feat_stride": "16", 
        "is_train": "False", 
        "op_type": "proposal", 
        "ratios": "(0.5, 1, 2)", 
        "scales": "(4, 8, 16, 32)"
      }, 
      "inputs": [[355, 0, 0], [358, 0, 0], [359, 0, 0]]
    }, 
    {
      "op": "ROIPooling", 
      "name": "roi_pool5", 
      "attr": {
        "pooled_size": "(7, 7)", 
        "spatial_scale": "0.0625"
      }, 
      "inputs": [[345, 0, 0], [360, 0, 0]]
    }, 
    {
      "op": "null", 
      "name": "stage4_unit1_bn1_gamma", 
      "attr": {
        "eps": "2e-05", 
        "fix_gamma": "False", 
        "momentum": "0.9", 
        "use_global_stats": "False"
      }, 
      "inputs": []
    }, 
    {
      "op": "null", 
      "name": "stage4_unit1_bn1_beta", 
      "attr": {
        "eps": "2e-05", 
        "fix_gamma": "False", 
        "momentum": "0.9", 
        "use_global_stats": "False"
      }, 
      "inputs": []
    }, 
    {
      "op": "null", 
      "name": "stage4_unit1_bn1_moving_mean", 
      "attr": {
        "__init__": "[\"zero\", {}]", 
        "eps": "2e-05", 
        "fix_gamma": "False", 
        "momentum": "0.9", 
        "use_global_stats": "False"
      }, 
      "inputs": []
    }, 
    {
      "op": "null", 
      "name": "stage4_unit1_bn1_moving_var", 
      "attr": {
        "__init__": "[\"one\", {}]", 
        "eps": "2e-05", 
        "fix_gamma": "False", 
        "momentum": "0.9", 
        "use_global_stats": "False"
      }, 
      "inputs": []
    }, 
    {
      "op": "BatchNorm", 
      "name": "stage4_unit1_bn1", 
      "attr": {
        "eps": "2e-05", 
        "fix_gamma": "False", 
        "momentum": "0.9", 
        "use_global_stats": "False"
      }, 
      "inputs": [[361, 0, 0], [362, 0, 0], [363, 0, 0], [364, 0, 1], [365, 0, 1]]
    }, 
    {
      "op": "Activation", 
      "name": "stage4_unit1_relu1", 
      "attr": {"act_type": "relu"}, 
      "inputs": [[366, 0, 0]]
    }, 
    {
      "op": "null", 
      "name": "stage4_unit1_conv1_weight", 
      "attr": {
        "kernel": "(1, 1)", 
        "no_bias": "True", 
        "num_filter": "512", 
        "pad": "(0, 0)", 
        "stride": "(1, 1)", 
        "workspace": "512"
      }, 
      "inputs": []
    }, 
    {
      "op": "Convolution", 
      "name": "stage4_unit1_conv1", 
      "attr": {
        "kernel": "(1, 1)", 
        "no_bias": "True", 
        "num_filter": "512", 
        "pad": "(0, 0)", 
        "stride": "(1, 1)", 
        "workspace": "512"
      }, 
      "inputs": [[367, 0, 0], [368, 0, 0]]
    }, 
    {
      "op": "null", 
      "name": "stage4_unit1_bn2_gamma", 
      "attr": {
        "eps": "2e-05", 
        "fix_gamma": "False", 
        "momentum": "0.9", 
        "use_global_stats": "False"
      }, 
      "inputs": []
    }, 
    {
      "op": "null", 
      "name": "stage4_unit1_bn2_beta", 
      "attr": {
        "eps": "2e-05", 
        "fix_gamma": "False", 
        "momentum": "0.9", 
        "use_global_stats": "False"
      }, 
      "inputs": []
    }, 
    {
      "op": "null", 
      "name": "stage4_unit1_bn2_moving_mean", 
      "attr": {
        "__init__": "[\"zero\", {}]", 
        "eps": "2e-05", 
        "fix_gamma": "False", 
        "momentum": "0.9", 
        "use_global_stats": "False"
      }, 
      "inputs": []
    }, 
    {
      "op": "null", 
      "name": "stage4_unit1_bn2_moving_var", 
      "attr": {
        "__init__": "[\"one\", {}]", 
        "eps": "2e-05", 
        "fix_gamma": "False", 
        "momentum": "0.9", 
        "use_global_stats": "False"
      }, 
      "inputs": []
    }, 
    {
      "op": "BatchNorm", 
      "name": "stage4_unit1_bn2", 
      "attr": {
        "eps": "2e-05", 
        "fix_gamma": "False", 
        "momentum": "0.9", 
        "use_global_stats": "False"
      }, 
      "inputs": [[369, 0, 0], [370, 0, 0], [371, 0, 0], [372, 0, 1], [373, 0, 1]]
    }, 
    {
      "op": "Activation", 
      "name": "stage4_unit1_relu2", 
      "attr": {"act_type": "relu"}, 
      "inputs": [[374, 0, 0]]
    }, 
    {
      "op": "null", 
      "name": "stage4_unit1_conv2_weight", 
      "attr": {
        "kernel": "(3, 3)", 
        "no_bias": "True", 
        "num_filter": "512", 
        "pad": "(1, 1)", 
        "stride": "(2, 2)", 
        "workspace": "512"
      }, 
      "inputs": []
    }, 
    {
      "op": "Convolution", 
      "name": "stage4_unit1_conv2", 
      "attr": {
        "kernel": "(3, 3)", 
        "no_bias": "True", 
        "num_filter": "512", 
        "pad": "(1, 1)", 
        "stride": "(2, 2)", 
        "workspace": "512"
      }, 
      "inputs": [[375, 0, 0], [376, 0, 0]]
    }, 
    {
      "op": "null", 
      "name": "stage4_unit1_bn3_gamma", 
      "attr": {
        "eps": "2e-05", 
        "fix_gamma": "False", 
        "momentum": "0.9", 
        "use_global_stats": "False"
      }, 
      "inputs": []
    }, 
    {
      "op": "null", 
      "name": "stage4_unit1_bn3_beta", 
      "attr": {
        "eps": "2e-05", 
        "fix_gamma": "False", 
        "momentum": "0.9", 
        "use_global_stats": "False"
      }, 
      "inputs": []
    }, 
    {
      "op": "null", 
      "name": "stage4_unit1_bn3_moving_mean", 
      "attr": {
        "__init__": "[\"zero\", {}]", 
        "eps": "2e-05", 
        "fix_gamma": "False", 
        "momentum": "0.9", 
        "use_global_stats": "False"
      }, 
      "inputs": []
    }, 
    {
      "op": "null", 
      "name": "stage4_unit1_bn3_moving_var", 
      "attr": {
        "__init__": "[\"one\", {}]", 
        "eps": "2e-05", 
        "fix_gamma": "False", 
        "momentum": "0.9", 
        "use_global_stats": "False"
      }, 
      "inputs": []
    }, 
    {
      "op": "BatchNorm", 
      "name": "stage4_unit1_bn3", 
      "attr": {
        "eps": "2e-05", 
        "fix_gamma": "False", 
        "momentum": "0.9", 
        "use_global_stats": "False"
      }, 
      "inputs": [[377, 0, 0], [378, 0, 0], [379, 0, 0], [380, 0, 1], [381, 0, 1]]
    }, 
    {
      "op": "Activation", 
      "name": "stage4_unit1_relu3", 
      "attr": {"act_type": "relu"}, 
      "inputs": [[382, 0, 0]]
    }, 
    {
      "op": "null", 
      "name": "stage4_unit1_conv3_weight", 
      "attr": {
        "kernel": "(1, 1)", 
        "no_bias": "True", 
        "num_filter": "2048", 
        "pad": "(0, 0)", 
        "stride": "(1, 1)", 
        "workspace": "512"
      }, 
      "inputs": []
    }, 
    {
      "op": "Convolution", 
      "name": "stage4_unit1_conv3", 
      "attr": {
        "kernel": "(1, 1)", 
        "no_bias": "True", 
        "num_filter": "2048", 
        "pad": "(0, 0)", 
        "stride": "(1, 1)", 
        "workspace": "512"
      }, 
      "inputs": [[383, 0, 0], [384, 0, 0]]
    }, 
    {
      "op": "null", 
      "name": "stage4_unit1_sc_weight", 
      "attr": {
        "kernel": "(1, 1)", 
        "no_bias": "True", 
        "num_filter": "2048", 
        "stride": "(2, 2)", 
        "workspace": "512"
      }, 
      "inputs": []
    }, 
    {
      "op": "Convolution", 
      "name": "stage4_unit1_sc", 
      "attr": {
        "kernel": "(1, 1)", 
        "no_bias": "True", 
        "num_filter": "2048", 
        "stride": "(2, 2)", 
        "workspace": "512"
      }, 
      "inputs": [[367, 0, 0], [386, 0, 0]]
    }, 
    {
      "op": "elemwise_add", 
      "name": "_plus13", 
      "inputs": [[385, 0, 0], [387, 0, 0]]
    }, 
    {
      "op": "null", 
      "name": "stage4_unit2_bn1_gamma", 
      "attr": {
        "eps": "2e-05", 
        "fix_gamma": "False", 
        "momentum": "0.9", 
        "use_global_stats": "False"
      }, 
      "inputs": []
    }, 
    {
      "op": "null", 
      "name": "stage4_unit2_bn1_beta", 
      "attr": {
        "eps": "2e-05", 
        "fix_gamma": "False", 
        "momentum": "0.9", 
        "use_global_stats": "False"
      }, 
      "inputs": []
    }, 
    {
      "op": "null", 
      "name": "stage4_unit2_bn1_moving_mean", 
      "attr": {
        "__init__": "[\"zero\", {}]", 
        "eps": "2e-05", 
        "fix_gamma": "False", 
        "momentum": "0.9", 
        "use_global_stats": "False"
      }, 
      "inputs": []
    }, 
    {
      "op": "null", 
      "name": "stage4_unit2_bn1_moving_var", 
      "attr": {
        "__init__": "[\"one\", {}]", 
        "eps": "2e-05", 
        "fix_gamma": "False", 
        "momentum": "0.9", 
        "use_global_stats": "False"
      }, 
      "inputs": []
    }, 
    {
      "op": "BatchNorm", 
      "name": "stage4_unit2_bn1", 
      "attr": {
        "eps": "2e-05", 
        "fix_gamma": "False", 
        "momentum": "0.9", 
        "use_global_stats": "False"
      }, 
      "inputs": [[388, 0, 0], [389, 0, 0], [390, 0, 0], [391, 0, 1], [392, 0, 1]]
    }, 
    {
      "op": "Activation", 
      "name": "stage4_unit2_relu1", 
      "attr": {"act_type": "relu"}, 
      "inputs": [[393, 0, 0]]
    }, 
    {
      "op": "null", 
      "name": "stage4_unit2_conv1_weight", 
      "attr": {
        "kernel": "(1, 1)", 
        "no_bias": "True", 
        "num_filter": "512", 
        "pad": "(0, 0)", 
        "stride": "(1, 1)", 
        "workspace": "512"
      }, 
      "inputs": []
    }, 
    {
      "op": "Convolution", 
      "name": "stage4_unit2_conv1", 
      "attr": {
        "kernel": "(1, 1)", 
        "no_bias": "True", 
        "num_filter": "512", 
        "pad": "(0, 0)", 
        "stride": "(1, 1)", 
        "workspace": "512"
      }, 
      "inputs": [[394, 0, 0], [395, 0, 0]]
    }, 
    {
      "op": "null", 
      "name": "stage4_unit2_bn2_gamma", 
      "attr": {
        "eps": "2e-05", 
        "fix_gamma": "False", 
        "momentum": "0.9", 
        "use_global_stats": "False"
      }, 
      "inputs": []
    }, 
    {
      "op": "null", 
      "name": "stage4_unit2_bn2_beta", 
      "attr": {
        "eps": "2e-05", 
        "fix_gamma": "False", 
        "momentum": "0.9", 
        "use_global_stats": "False"
      }, 
      "inputs": []
    }, 
    {
      "op": "null", 
      "name": "stage4_unit2_bn2_moving_mean", 
      "attr": {
        "__init__": "[\"zero\", {}]", 
        "eps": "2e-05", 
        "fix_gamma": "False", 
        "momentum": "0.9", 
        "use_global_stats": "False"
      }, 
      "inputs": []
    }, 
    {
      "op": "null", 
      "name": "stage4_unit2_bn2_moving_var", 
      "attr": {
        "__init__": "[\"one\", {}]", 
        "eps": "2e-05", 
        "fix_gamma": "False", 
        "momentum": "0.9", 
        "use_global_stats": "False"
      }, 
      "inputs": []
    }, 
    {
      "op": "BatchNorm", 
      "name": "stage4_unit2_bn2", 
      "attr": {
        "eps": "2e-05", 
        "fix_gamma": "False", 
        "momentum": "0.9", 
        "use_global_stats": "False"
      }, 
      "inputs": [[396, 0, 0], [397, 0, 0], [398, 0, 0], [399, 0, 1], [400, 0, 1]]
    }, 
    {
      "op": "Activation", 
      "name": "stage4_unit2_relu2", 
      "attr": {"act_type": "relu"}, 
      "inputs": [[401, 0, 0]]
    }, 
    {
      "op": "null", 
      "name": "stage4_unit2_conv2_weight", 
      "attr": {
        "kernel": "(3, 3)", 
        "no_bias": "True", 
        "num_filter": "512", 
        "pad": "(1, 1)", 
        "stride": "(1, 1)", 
        "workspace": "512"
      }, 
      "inputs": []
    }, 
    {
      "op": "Convolution", 
      "name": "stage4_unit2_conv2", 
      "attr": {
        "kernel": "(3, 3)", 
        "no_bias": "True", 
        "num_filter": "512", 
        "pad": "(1, 1)", 
        "stride": "(1, 1)", 
        "workspace": "512"
      }, 
      "inputs": [[402, 0, 0], [403, 0, 0]]
    }, 
    {
      "op": "null", 
      "name": "stage4_unit2_bn3_gamma", 
      "attr": {
        "eps": "2e-05", 
        "fix_gamma": "False", 
        "momentum": "0.9", 
        "use_global_stats": "False"
      }, 
      "inputs": []
    }, 
    {
      "op": "null", 
      "name": "stage4_unit2_bn3_beta", 
      "attr": {
        "eps": "2e-05", 
        "fix_gamma": "False", 
        "momentum": "0.9", 
        "use_global_stats": "False"
      }, 
      "inputs": []
    }, 
    {
      "op": "null", 
      "name": "stage4_unit2_bn3_moving_mean", 
      "attr": {
        "__init__": "[\"zero\", {}]", 
        "eps": "2e-05", 
        "fix_gamma": "False", 
        "momentum": "0.9", 
        "use_global_stats": "False"
      }, 
      "inputs": []
    }, 
    {
      "op": "null", 
      "name": "stage4_unit2_bn3_moving_var", 
      "attr": {
        "__init__": "[\"one\", {}]", 
        "eps": "2e-05", 
        "fix_gamma": "False", 
        "momentum": "0.9", 
        "use_global_stats": "False"
      }, 
      "inputs": []
    }, 
    {
      "op": "BatchNorm", 
      "name": "stage4_unit2_bn3", 
      "attr": {
        "eps": "2e-05", 
        "fix_gamma": "False", 
        "momentum": "0.9", 
        "use_global_stats": "False"
      }, 
      "inputs": [[404, 0, 0], [405, 0, 0], [406, 0, 0], [407, 0, 1], [408, 0, 1]]
    }, 
    {
      "op": "Activation", 
      "name": "stage4_unit2_relu3", 
      "attr": {"act_type": "relu"}, 
      "inputs": [[409, 0, 0]]
    }, 
    {
      "op": "null", 
      "name": "stage4_unit2_conv3_weight", 
      "attr": {
        "kernel": "(1, 1)", 
        "no_bias": "True", 
        "num_filter": "2048", 
        "pad": "(0, 0)", 
        "stride": "(1, 1)", 
        "workspace": "512"
      }, 
      "inputs": []
    }, 
    {
      "op": "Convolution", 
      "name": "stage4_unit2_conv3", 
      "attr": {
        "kernel": "(1, 1)", 
        "no_bias": "True", 
        "num_filter": "2048", 
        "pad": "(0, 0)", 
        "stride": "(1, 1)", 
        "workspace": "512"
      }, 
      "inputs": [[410, 0, 0], [411, 0, 0]]
    }, 
    {
      "op": "elemwise_add", 
      "name": "_plus14", 
      "inputs": [[412, 0, 0], [388, 0, 0]]
    }, 
    {
      "op": "null", 
      "name": "stage4_unit3_bn1_gamma", 
      "attr": {
        "eps": "2e-05", 
        "fix_gamma": "False", 
        "momentum": "0.9", 
        "use_global_stats": "False"
      }, 
      "inputs": []
    }, 
    {
      "op": "null", 
      "name": "stage4_unit3_bn1_beta", 
      "attr": {
        "eps": "2e-05", 
        "fix_gamma": "False", 
        "momentum": "0.9", 
        "use_global_stats": "False"
      }, 
      "inputs": []
    }, 
    {
      "op": "null", 
      "name": "stage4_unit3_bn1_moving_mean", 
      "attr": {
        "__init__": "[\"zero\", {}]", 
        "eps": "2e-05", 
        "fix_gamma": "False", 
        "momentum": "0.9", 
        "use_global_stats": "False"
      }, 
      "inputs": []
    }, 
    {
      "op": "null", 
      "name": "stage4_unit3_bn1_moving_var", 
      "attr": {
        "__init__": "[\"one\", {}]", 
        "eps": "2e-05", 
        "fix_gamma": "False", 
        "momentum": "0.9", 
        "use_global_stats": "False"
      }, 
      "inputs": []
    }, 
    {
      "op": "BatchNorm", 
      "name": "stage4_unit3_bn1", 
      "attr": {
        "eps": "2e-05", 
        "fix_gamma": "False", 
        "momentum": "0.9", 
        "use_global_stats": "False"
      }, 
      "inputs": [[413, 0, 0], [414, 0, 0], [415, 0, 0], [416, 0, 1], [417, 0, 1]]
    }, 
    {
      "op": "Activation", 
      "name": "stage4_unit3_relu1", 
      "attr": {"act_type": "relu"}, 
      "inputs": [[418, 0, 0]]
    }, 
    {
      "op": "null", 
      "name": "stage4_unit3_conv1_weight", 
      "attr": {
        "kernel": "(1, 1)", 
        "no_bias": "True", 
        "num_filter": "512", 
        "pad": "(0, 0)", 
        "stride": "(1, 1)", 
        "workspace": "512"
      }, 
      "inputs": []
    }, 
    {
      "op": "Convolution", 
      "name": "stage4_unit3_conv1", 
      "attr": {
        "kernel": "(1, 1)", 
        "no_bias": "True", 
        "num_filter": "512", 
        "pad": "(0, 0)", 
        "stride": "(1, 1)", 
        "workspace": "512"
      }, 
      "inputs": [[419, 0, 0], [420, 0, 0]]
    }, 
    {
      "op": "null", 
      "name": "stage4_unit3_bn2_gamma", 
      "attr": {
        "eps": "2e-05", 
        "fix_gamma": "False", 
        "momentum": "0.9", 
        "use_global_stats": "False"
      }, 
      "inputs": []
    }, 
    {
      "op": "null", 
      "name": "stage4_unit3_bn2_beta", 
      "attr": {
        "eps": "2e-05", 
        "fix_gamma": "False", 
        "momentum": "0.9", 
        "use_global_stats": "False"
      }, 
      "inputs": []
    }, 
    {
      "op": "null", 
      "name": "stage4_unit3_bn2_moving_mean", 
      "attr": {
        "__init__": "[\"zero\", {}]", 
        "eps": "2e-05", 
        "fix_gamma": "False", 
        "momentum": "0.9", 
        "use_global_stats": "False"
      }, 
      "inputs": []
    }, 
    {
      "op": "null", 
      "name": "stage4_unit3_bn2_moving_var", 
      "attr": {
        "__init__": "[\"one\", {}]", 
        "eps": "2e-05", 
        "fix_gamma": "False", 
        "momentum": "0.9", 
        "use_global_stats": "False"
      }, 
      "inputs": []
    }, 
    {
      "op": "BatchNorm", 
      "name": "stage4_unit3_bn2", 
      "attr": {
        "eps": "2e-05", 
        "fix_gamma": "False", 
        "momentum": "0.9", 
        "use_global_stats": "False"
      }, 
      "inputs": [[421, 0, 0], [422, 0, 0], [423, 0, 0], [424, 0, 1], [425, 0, 1]]
    }, 
    {
      "op": "Activation", 
      "name": "stage4_unit3_relu2", 
      "attr": {"act_type": "relu"}, 
      "inputs": [[426, 0, 0]]
    }, 
    {
      "op": "null", 
      "name": "stage4_unit3_conv2_weight", 
      "attr": {
        "kernel": "(3, 3)", 
        "no_bias": "True", 
        "num_filter": "512", 
        "pad": "(1, 1)", 
        "stride": "(1, 1)", 
        "workspace": "512"
      }, 
      "inputs": []
    }, 
    {
      "op": "Convolution", 
      "name": "stage4_unit3_conv2", 
      "attr": {
        "kernel": "(3, 3)", 
        "no_bias": "True", 
        "num_filter": "512", 
        "pad": "(1, 1)", 
        "stride": "(1, 1)", 
        "workspace": "512"
      }, 
      "inputs": [[427, 0, 0], [428, 0, 0]]
    }, 
    {
      "op": "null", 
      "name": "stage4_unit3_bn3_gamma", 
      "attr": {
        "eps": "2e-05", 
        "fix_gamma": "False", 
        "momentum": "0.9", 
        "use_global_stats": "False"
      }, 
      "inputs": []
    }, 
    {
      "op": "null", 
      "name": "stage4_unit3_bn3_beta", 
      "attr": {
        "eps": "2e-05", 
        "fix_gamma": "False", 
        "momentum": "0.9", 
        "use_global_stats": "False"
      }, 
      "inputs": []
    }, 
    {
      "op": "null", 
      "name": "stage4_unit3_bn3_moving_mean", 
      "attr": {
        "__init__": "[\"zero\", {}]", 
        "eps": "2e-05", 
        "fix_gamma": "False", 
        "momentum": "0.9", 
        "use_global_stats": "False"
      }, 
      "inputs": []
    }, 
    {
      "op": "null", 
      "name": "stage4_unit3_bn3_moving_var", 
      "attr": {
        "__init__": "[\"one\", {}]", 
        "eps": "2e-05", 
        "fix_gamma": "False", 
        "momentum": "0.9", 
        "use_global_stats": "False"
      }, 
      "inputs": []
    }, 
    {
      "op": "BatchNorm", 
      "name": "stage4_unit3_bn3", 
      "attr": {
        "eps": "2e-05", 
        "fix_gamma": "False", 
        "momentum": "0.9", 
        "use_global_stats": "False"
      }, 
      "inputs": [[429, 0, 0], [430, 0, 0], [431, 0, 0], [432, 0, 1], [433, 0, 1]]
    }, 
    {
      "op": "Activation", 
      "name": "stage4_unit3_relu3", 
      "attr": {"act_type": "relu"}, 
      "inputs": [[434, 0, 0]]
    }, 
    {
      "op": "null", 
      "name": "stage4_unit3_conv3_weight", 
      "attr": {
        "kernel": "(1, 1)", 
        "no_bias": "True", 
        "num_filter": "2048", 
        "pad": "(0, 0)", 
        "stride": "(1, 1)", 
        "workspace": "512"
      }, 
      "inputs": []
    }, 
    {
      "op": "Convolution", 
      "name": "stage4_unit3_conv3", 
      "attr": {
        "kernel": "(1, 1)", 
        "no_bias": "True", 
        "num_filter": "2048", 
        "pad": "(0, 0)", 
        "stride": "(1, 1)", 
        "workspace": "512"
      }, 
      "inputs": [[435, 0, 0], [436, 0, 0]]
    }, 
    {
      "op": "elemwise_add", 
      "name": "_plus15", 
      "inputs": [[437, 0, 0], [413, 0, 0]]
    }, 
    {
      "op": "null", 
      "name": "bn1_gamma", 
      "attr": {
        "eps": "2e-05", 
        "fix_gamma": "False", 
        "momentum": "0.99", 
        "use_global_stats": "False"
      }, 
      "inputs": []
    }, 
    {
      "op": "null", 
      "name": "bn1_beta", 
      "attr": {
        "eps": "2e-05", 
        "fix_gamma": "False", 
        "momentum": "0.99", 
        "use_global_stats": "False"
      }, 
      "inputs": []
    }, 
    {
      "op": "null", 
      "name": "bn1_moving_mean", 
      "attr": {
        "__init__": "[\"zero\", {}]", 
        "eps": "2e-05", 
        "fix_gamma": "False", 
        "momentum": "0.99", 
        "use_global_stats": "False"
      }, 
      "inputs": []
    }, 
    {
      "op": "null", 
      "name": "bn1_moving_var", 
      "attr": {
        "__init__": "[\"one\", {}]", 
        "eps": "2e-05", 
        "fix_gamma": "False", 
        "momentum": "0.99", 
        "use_global_stats": "False"
      }, 
      "inputs": []
    }, 
    {
      "op": "BatchNorm", 
      "name": "bn1", 
      "attr": {
        "eps": "2e-05", 
        "fix_gamma": "False", 
        "momentum": "0.99", 
        "use_global_stats": "False"
      }, 
      "inputs": [[438, 0, 0], [439, 0, 0], [440, 0, 0], [441, 0, 1], [442, 0, 1]]
    }, 
    {
      "op": "Activation", 
      "name": "relu1", 
      "attr": {"act_type": "relu"}, 
      "inputs": [[443, 0, 0]]
    }, 
    {
      "op": "Pooling", 
      "name": "pool1", 
      "attr": {
        "global_pool": "True", 
        "kernel": "(7, 7)", 
        "pool_type": "avg"
      }, 
      "inputs": [[444, 0, 0]]
    }, 
    {
      "op": "Flatten", 
      "name": "flatten0", 
      "inputs": [[445, 0, 0]]
    }, 
    {
      "op": "null", 
      "name": "cls_score_weight", 
      "attr": {"num_hidden": "2"}, 
      "inputs": []
    }, 
    {
      "op": "null", 
      "name": "cls_score_bias", 
      "attr": {"num_hidden": "2"}, 
      "inputs": []
    }, 
    {
      "op": "FullyConnected", 
      "name": "cls_score", 
      "attr": {"num_hidden": "2"}, 
      "inputs": [[446, 0, 0], [447, 0, 0], [448, 0, 0]]
    }, 
    {
      "op": "SoftmaxActivation", 
      "name": "cls_prob", 
      "inputs": [[449, 0, 0]]
    }, 
    {
      "op": "Reshape", 
      "name": "cls_prob_reshape", 
      "attr": {"shape": "(1, -1, 2)"}, 
      "inputs": [[450, 0, 0]]
    }, 
    {
      "op": "null", 
      "name": "bbox_pred_weight", 
      "attr": {"num_hidden": "8"}, 
      "inputs": []
    }, 
    {
      "op": "null", 
      "name": "bbox_pred_bias", 
      "attr": {"num_hidden": "8"}, 
      "inputs": []
    }, 
    {
      "op": "FullyConnected", 
      "name": "bbox_pred", 
      "attr": {"num_hidden": "8"}, 
      "inputs": [[446, 0, 0], [452, 0, 0], [453, 0, 0]]
    }, 
    {
      "op": "Reshape", 
      "name": "bbox_pred_reshape", 
      "attr": {"shape": "(1, -1, 8)"}, 
      "inputs": [[454, 0, 0]]
    }
  ], 
  "arg_nodes": [
    0, 
    1, 
    2, 
    3, 
    4, 
    6, 
    8, 
    9, 
    10, 
    11, 
    15, 
    16, 
    17, 
    18, 
    21, 
    23, 
    24, 
    25, 
    26, 
    29, 
    31, 
    32, 
    33, 
    34, 
    37, 
    39, 
    42, 
    43, 
    44, 
    45, 
    48, 
    50, 
    51, 
    52, 
    53, 
    56, 
    58, 
    59, 
    60, 
    61, 
    64, 
    67, 
    68, 
    69, 
    70, 
    73, 
    75, 
    76, 
    77, 
    78, 
    81, 
    83, 
    84, 
    85, 
    86, 
    89, 
    92, 
    93, 
    94, 
    95, 
    98, 
    100, 
    101, 
    102, 
    103, 
    106, 
    108, 
    109, 
    110, 
    111, 
    114, 
    116, 
    119, 
    120, 
    121, 
    122, 
    125, 
    127, 
    128, 
    129, 
    130, 
    133, 
    135, 
    136, 
    137, 
    138, 
    141, 
    144, 
    145, 
    146, 
    147, 
    150, 
    152, 
    153, 
    154, 
    155, 
    158, 
    160, 
    161, 
    162, 
    163, 
    166, 
    169, 
    170, 
    171, 
    172, 
    175, 
    177, 
    178, 
    179, 
    180, 
    183, 
    185, 
    186, 
    187, 
    188, 
    191, 
    194, 
    195, 
    196, 
    197, 
    200, 
    202, 
    203, 
    204, 
    205, 
    208, 
    210, 
    211, 
    212, 
    213, 
    216, 
    218, 
    221, 
    222, 
    223, 
    224, 
    227, 
    229, 
    230, 
    231, 
    232, 
    235, 
    237, 
    238, 
    239, 
    240, 
    243, 
    246, 
    247, 
    248, 
    249, 
    252, 
    254, 
    255, 
    256, 
    257, 
    260, 
    262, 
    263, 
    264, 
    265, 
    268, 
    271, 
    272, 
    273, 
    274, 
    277, 
    279, 
    280, 
    281, 
    282, 
    285, 
    287, 
    288, 
    289, 
    290, 
    293, 
    296, 
    297, 
    298, 
    299, 
    302, 
    304, 
    305, 
    306, 
    307, 
    310, 
    312, 
    313, 
    314, 
    315, 
    318, 
    321, 
    322, 
    323, 
    324, 
    327, 
    329, 
    330, 
    331, 
    332, 
    335, 
    337, 
    338, 
    339, 
    340, 
    343, 
    346, 
    347, 
    350, 
    351, 
    356, 
    357, 
    359, 
    362, 
    363, 
    364, 
    365, 
    368, 
    370, 
    371, 
    372, 
    373, 
    376, 
    378, 
    379, 
    380, 
    381, 
    384, 
    386, 
    389, 
    390, 
    391, 
    392, 
    395, 
    397, 
    398, 
    399, 
    400, 
    403, 
    405, 
    406, 
    407, 
    408, 
    411, 
    414, 
    415, 
    416, 
    417, 
    420, 
    422, 
    423, 
    424, 
    425, 
    428, 
    430, 
    431, 
    432, 
    433, 
    436, 
    439, 
    440, 
    441, 
    442, 
    447, 
    448, 
    452, 
    453
  ], 
  "node_row_ptr": [
    0, 
    1, 
    2, 
    3, 
    4, 
    5, 
    8, 
    9, 
    10, 
    11, 
    12, 
    13, 
    14, 
    17, 
    18, 
    19, 
    20, 
    21, 
    22, 
    23, 
    26, 
    27, 
    28, 
    29, 
    30, 
    31, 
    32, 
    33, 
    36, 
    37, 
    38, 
    39, 
    40, 
    41, 
    42, 
    43, 
    46, 
    47, 
    48, 
    49, 
    50, 
    51, 
    52, 
    53, 
    54, 
    55, 
    56, 
    59, 
    60, 
    61, 
    62, 
    63, 
    64, 
    65, 
    66, 
    69, 
    70, 
    71, 
    72, 
    73, 
    74, 
    75, 
    76, 
    79, 
    80, 
    81, 
    82, 
    83, 
    84, 
    85, 
    86, 
    87, 
    90, 
    91, 
    92, 
    93, 
    94, 
    95, 
    96, 
    97, 
    100, 
    101, 
    102, 
    103, 
    104, 
    105, 
    106, 
    107, 
    110, 
    111, 
    112, 
    113, 
    114, 
    115, 
    116, 
    117, 
    118, 
    121, 
    122, 
    123, 
    124, 
    125, 
    126, 
    127, 
    128, 
    131, 
    132, 
    133, 
    134, 
    135, 
    136, 
    137, 
    138, 
    141, 
    142, 
    143, 
    144, 
    145, 
    146, 
    147, 
    148, 
    149, 
    150, 
    151, 
    154, 
    155, 
    156, 
    157, 
    158, 
    159, 
    160, 
    161, 
    164, 
    165, 
    166, 
    167, 
    168, 
    169, 
    170, 
    171, 
    174, 
    175, 
    176, 
    177, 
    178, 
    179, 
    180, 
    181, 
    182, 
    185, 
    186, 
    187, 
    188, 
    189, 
    190, 
    191, 
    192, 
    195, 
    196, 
    197, 
    198, 
    199, 
    200, 
    201, 
    202, 
    205, 
    206, 
    207, 
    208, 
    209, 
    210, 
    211, 
    212, 
    213, 
    216, 
    217, 
    218, 
    219, 
    220, 
    221, 
    222, 
    223, 
    226, 
    227, 
    228, 
    229, 
    230, 
    231, 
    232, 
    233, 
    236, 
    237, 
    238, 
    239, 
    240, 
    241, 
    242, 
    243, 
    244, 
    247, 
    248, 
    249, 
    250, 
    251, 
    252, 
    253, 
    254, 
    257, 
    258, 
    259, 
    260, 
    261, 
    262, 
    263, 
    264, 
    267, 
    268, 
    269, 
    270, 
    271, 
    272, 
    273, 
    274, 
    275, 
    276, 
    277, 
    280, 
    281, 
    282, 
    283, 
    284, 
    285, 
    286, 
    287, 
    290, 
    291, 
    292, 
    293, 
    294, 
    295, 
    296, 
    297, 
    300, 
    301, 
    302, 
    303, 
    304, 
    305, 
    306, 
    307, 
    308, 
    311, 
    312, 
    313, 
    314, 
    315, 
    316, 
    317, 
    318, 
    321, 
    322, 
    323, 
    324, 
    325, 
    326, 
    327, 
    328, 
    331, 
    332, 
    333, 
    334, 
    335, 
    336, 
    337, 
    338, 
    339, 
    342, 
    343, 
    344, 
    345, 
    346, 
    347, 
    348, 
    349, 
    352, 
    353, 
    354, 
    355, 
    356, 
    357, 
    358, 
    359, 
    362, 
    363, 
    364, 
    365, 
    366, 
    367, 
    368, 
    369, 
    370, 
    373, 
    374, 
    375, 
    376, 
    377, 
    378, 
    379, 
    380, 
    383, 
    384, 
    385, 
    386, 
    387, 
    388, 
    389, 
    390, 
    393, 
    394, 
    395, 
    396, 
    397, 
    398, 
    399, 
    400, 
    401, 
    404, 
    405, 
    406, 
    407, 
    408, 
    409, 
    410, 
    411, 
    414, 
    415, 
    416, 
    417, 
    418, 
    419, 
    420, 
    421, 
    424, 
    425, 
    426, 
    427, 
    428, 
    429, 
    430, 
    431, 
    432, 
    433, 
    434, 
    435, 
    436, 
    437, 
    438, 
    439, 
    440, 
    441, 
    442, 
    443, 
    445, 
    446, 
    447, 
    448, 
    449, 
    452, 
    453, 
    454, 
    455, 
    456, 
    457, 
    458, 
    459, 
    462, 
    463, 
    464, 
    465, 
    466, 
    467, 
    468, 
    469, 
    472, 
    473, 
    474, 
    475, 
    476, 
    477, 
    478, 
    479, 
    480, 
    481, 
    482, 
    485, 
    486, 
    487, 
    488, 
    489, 
    490, 
    491, 
    492, 
    495, 
    496, 
    497, 
    498, 
    499, 
    500, 
    501, 
    502, 
    505, 
    506, 
    507, 
    508, 
    509, 
    510, 
    511, 
    512, 
    513, 
    516, 
    517, 
    518, 
    519, 
    520, 
    521, 
    522, 
    523, 
    526, 
    527, 
    528, 
    529, 
    530, 
    531, 
    532, 
    533, 
    536, 
    537, 
    538, 
    539, 
    540, 
    541, 
    542, 
    543, 
    544, 
    547, 
    548, 
    549, 
    550, 
    551, 
    552, 
    553, 
    554, 
    555, 
    556, 
    557, 
    558, 
    559
  ], 
  "heads": [[360, 0, 0], [451, 0, 0], [455, 0, 0]], 
  "attrs": {"mxnet_version": ["int", 905]}
}